model.onnx (onnx, 3606 bytes, 10 tensors)

0.bias f4 [15]
0.03924048 -0.21856771 -0.19229779 0.010379361 0.11986941 0.26861793 -0.17098694 -0.22657174
0.023165865 0.17404114 0.24681158 0.18476586 0.14055383 0.17498803 0.16081221
00000000: a0ba 203d 37d0 5fbe b6e9 44be 320e 2a3c
00000010: 187e f53d 4a88 893e 3317 2fbe 6c02 68be
00000020: 57c6 bd3c d737 323e 2dbc 7c3e 4333 3d3e
00000030: 58ed 0f3e 1030 333e f5ab 243e

2.bias f4 [13]
-0.19654714 0.040746063 0.16826987 0.027377011 0.24252692 -0.02594565 -0.0078139715 -0.2134683
-0.18890813 -0.21673164 0.18141918 -0.06103502 0.07848498
00000000: a743 49be 58e5 263d f04e 2c3e c145 e03c
00000010: fa58 783e f98b d4bc 2c06 00bc 6f97 5abe
00000020: 2271 41be e6ee 5dbe f3c5 393e dbff 79bd
00000030: bcbc a03d

4.bias f4 [11]
0.15420052 -0.25350127 -0.1171343 0.109631166 0.08915134 -0.04515686 0.06647826 -0.12140619
0.18745843 -0.24596164 0.035511706
00000000: bee6 1d3e ebca 81be 1ce4 efbd 4e86 e03d
00000010: fa94 b63d 66f6 38bd c125 883d cfa3 f8bd
00000020: 1af5 3f3e 5edd 7bbe b974 113d

6.bias f4 [9]
0.0038008743 0.30866307 -0.07841089 0.179229 0.2231323 -0.20668955 -0.0031444458 -0.28012002
0.14259398
00000000: 1718 793b 1609 9e3e e495 a0bd cf87 373e
00000010: cb7c 643e 6da6 53be 0c13 4ebb e46b 8fbe
00000020: 2804 123e

8.bias f4 [2]
0.15134819 -0.14713183
00000000: 05fb 1a3e baa9 16be

onnx::MatMul_31 f4 [7, 15]
0.23003973 -0.34632513 -0.25109047 0.22975862 0.33683002 0.19731058 0.094993524 -0.35598
0.0049900925 0.007864899 -0.22632764 -0.04083007 0.3608057 0.044646304 -0.059212215 -0.28340346
-0.101408094 -0.24606639 -0.0020613929 -0.34976122 -0.031174172 0.27064133 0.15683724 0.25311273
-0.36635575 -0.24721228 -0.3418547 0.3403376 -0.07265699 0.15153018 -0.3745838 0.15116468
-0.13933375 0.34261858 0.2327984 0.034661278 -0.10246099 0.11736505 0.26895702 -0.08332007
-0.037942115 0.027730972 0.33027893 -0.21669213 -0.34835362 0.11776086 0.08824199 0.2611473
-0.3501835 -0.24400948 0.027881967 -0.24727745 0.15455624 0.22050281 -0.10470141 -0.04335687
0.10118747 -0.09759697 -0.260177 -0.016513351 0.28087857 -0.106110364 0.14207317 -0.30740577
0.09926486 -0.041646726 0.066498 0.22861451 -0.24840227 0.24640137 0.34854263 0.23994268
0.014566037 -0.33202025 0.15217245 0.13199209 0.29947612 -0.11253143 0.28538454 0.079817176
0.29292426 -0.3212077 -0.054531157 -0.05781043 -0.01401867 -0.33415997 -0.05210647 -0.273589
0.11037047 -0.2962243 -0.004879898 0.30680618 0.32447022 0.37011513 -0.011957959 -0.11071283
-0.037250265 0.14758544 -0.21719563 0.07427887 0.35828525 0.005217335 -0.27188832 0.3277365
-0.2589509
00000000: 898f 6b3e 8751 b1be ee8e 80be d845 6b3e
00000010: fc74 ac3e c90b 4a3e f78b c23d 0343 b6be
00000020: ee83 a33b c7db 003c 6fc2 67be 6e3d 27bd
00000030: 86bb b83e 0bdf 363d 8288 72bd 421a 91be
00000040: 0caf cfbd d4f8 7bbe 6f18 07bb e713 b3be
00000050: fa60 ffbc 8091 8a3e f199 203e fe97 813e
00000060: fb92 bbbe 3725 7dbe 9407 afbe bb40 ae3e
00000070: 30cd 94bd ba2a 1b3e 73c9 bfbe eaca 1a3e
00000080: 82ad 0ebe b46b af3e b462 6e3e fcf8 0d3d
00000090: 11d7 d1bd 165d f03d bcb4 893e b6a3 aabd
000000a0: 3169 1bbd 102c e33c 521a a93e 8be4 5dbe
000000b0: 685b b2be 9b2c f13d 37b8 b43d 19b5 853e
000000c0: 404b b3be 9fdd 79be b968 e43c 4d36 7dbe
000000d0: fe43 1e3e 7dcb 613e b16d d6bd f996 31bd
000000e0: 603b cf3d ece0 c7bd eb35 85be 0247 87bc
000000f0: 51cf 8f3e 6450 d9bd a17b 113e 4a64 9dbe
00000100: 604b cb3d c295 2abd 1a30 883d ec19 6a3e
00000110: 2a5d 7ebe a450 7c3e 2e74 b23e 89b3 753e
00000120: 63a6 6e3c 8ffe a9be 18d3 1b3e ef28 073e
00000130: ef54 993e e176 e6bd ec1d 923e 3077 a33d
00000140: 2bfa 953e 5675 a4be 105c 5fbd a1ca 6cbd
00000150: 90ae 65bc 0417 abbe 986d 55bd db13 8cbe
00000160: ea09 e23d b6aa 97be 8de7 9fbb b315 9d3e
00000170: f620 a63e bb7f bd3e 51eb 43bc 69bd e2bd
00000180: bc93 18bd a320 173e 8868 5ebe 851f 983d
00000190: 2a71 b73e 2ef6 aa3b f234 8bbe 14cd a73e
000001a0: 3695 84be

onnx::MatMul_32 f4 [15, 13]
-0.21407433 -0.013410884 -0.12466201 -0.07356304 -0.21612114 -0.080246456 -0.2298088 0.011690699
0.22908378 -0.18749048 0.110283755 -0.018653713 -0.22276282 0.011862431 -0.053774048 -0.06567801
0.13030756 -0.22178 -0.10501737 0.17437895 -0.09879502 -0.08699662 0.019765954 -0.058892895
0.02845118 0.112916164 -0.15585977 -0.11278178 0.0035606588 -0.20723876 -0.032562856 -0.07873279
-0.009116072 0.23659533 -0.06924207 0.055922985 0.03807781 -0.16870871 -0.19886619 -0.19967255
0.18136755 -0.13666266 0.24904312 0.035801068 -0.073285975 -0.25736317 -0.14914428 -0.25212803
0.19059394 -0.22383833 0.14123744 0.025066478 -0.19332933 0.13959557 -0.11017704 -0.09806986
-0.12633535 -0.13039494 0.19162391 0.1941522 -0.22747503 -0.1790096 -0.24254163 -0.15072177
-0.22743608 -0.05411319 -0.19853546 0.11144013 -0.16228135 -0.1538994 0.22017346 -0.1731184
0.07131925 -0.050165538 -0.14737782 -0.07765029 0.08651497 -0.10670082 0.14042608 0.2454486
0.000104345156 -0.19074874 0.11023879 0.21973483 0.16599691 -0.22663385 0.2458714 0.2461014
-0.08894065 0.019864986 0.25137082 -0.009910227 0.06796489 -0.13550906 0.13372 0.23731358
0.22245376 -0.2368319 0.07903315 0.093555525 -0.20128004 0.0856858 0.1580406 -0.013988983
-0.2461961 0.22848698 -0.068546325 -0.14687015 0.050076988 0.20404229 0.22343916 -0.09049465
0.02684219 -0.18976097 0.15120065 -0.021865673 0.13273741 0.17060627 -0.015813176 -0.19260685
0.1806409 -0.101467006 -0.072414465 -0.16742808 -0.16584034 -0.015689114 0.07522931 -0.20968705
0.23539318 0.06523423 -0.17783162 -0.22239366 0.16003352 0.16235238 -0.22016811 -0.24190608
0.1214666 0.016262298 -0.25181103 -0.005637768 0.15383597 0.007932444 -0.12837224 0.19475329
0.17506997 -0.20907456 0.19495662 0.09628877 0.17815302 0.24055088 -0.17917119 -0.24072365
0.19291554 -0.18172885 0.09236174 -0.25048682 0.07168749 0.076231964 -0.19171539 0.22001053
0.116955586 0.12356201 0.062837884 -0.117886946 -0.08663205 0.041635327 0.23306617 0.25554758
-0.21067709 0.0028170038 -0.13221079 -0.12516454 0.15981974 -0.10847516 0.002379422 0.24504013
0.13464867 -0.22904293 0.24728376 -0.07894781 -0.07794153 0.040675752 0.19021244 -0.21645467
-0.060440358 0.101619706 -0.13479964 0.22582912 -0.02472037 0.21821502 0.030822998 0.020402465
-0.02298488 0.21326281 -0.037015624
00000000: 4d36 5bbe 53b9 5bbc cc4e ffbd 38a8 96bd
00000010: dc4e 5dbe 4158 a4bd 0053 6bbe 588a 3f3c
00000020: f094 6a3e 81fd 3fbe 73dc e13d accf 98bc
00000030: f01b 64be a45a 423c 2d42 5cbd 3182 86bd
00000040: 586f 053e 4c1a 63be 5913 d7bd 6590 323e
00000050: 0b55 cabd 492b b2bd 36ec a13c ad39 71bd
00000060: 7312 e93c 9740 e73d b499 1fbe 22fa e6bd
00000070: f159 693b 6636 54be a160 05bd a83e a1bd
00000080: 945b 15bc 0c46 723e c9ce 8dbd 800f 653d
00000090: 7af7 1b3d fac1 2cbe 94a3 4bbe f676 4cbe
000000a0: 6ab8 393e 4cf1 0bbe 2905 7f3e 24a4 123d
000000b0: f516 96bd 1bc5 83be 47b9 18be ed16 81be
000000c0: 0f2b 433e e035 65be 8ca0 103e 3758 cd3c
000000d0: 20f8 45be 24f2 0e3e 80a4 e1bd dad8 c8bd
000000e0: 0e5e 01be 4086 05be 0f39 443e d6cf 463e
000000f0: 37ef 68be 4b4e 37be d55c 78be cf56 1abe
00000100: 01e5 68be cba5 5dbd e14c 4bbe b93a e43d
00000110: 152d 26be ce97 1dbe 2775 613e f345 31be
00000120: d40f 923d 617a 4dbd 36ea 16be 1e07 9fbd
00000130: c32e b13d f685 dabd dbcb 0f3e e156 7b3e
00000140: e1d3 da38 a353 43be e0c4 e13d 2b02 613e
00000150: 18fb 293e b412 68be b6c5 7b3e 0102 7c3e
00000160: 8426 b6bd e5bb a23c adb3 803e 815e 22bc
00000170: 2d31 8b3d e3c2 0abe e5ed 083e 5502 733e
00000180: ebca 633e 1084 72be 22dc a13d 0a9a bf3d
00000190: 5b1c 4ebe 097c af3d 65d5 213e 0c32 65bc
000001a0: d51a 7cbe 7ef8 693e 0462 8cbd 2165 16be
000001b0: 871d 4d3d 76f0 503e 3ccd 643e 4255 b9bd
000001c0: 27e4 db3c b350 42be 58d4 1a3e a41f b3bc
000001d0: 51ec 073e 69b3 2e3e a28a 81bc bb3a 45be
000001e0: eef9 383e efcd cfbd 094e 94bd 4472 2bbe
000001f0: 0dd2 29be 7586 80bc d311 9a3d 34b8 56be
00000200: e90a 713e 8699 853d 7e19 36be 2abb 63be
00000210: d4df 233e b43f 263e c073 61be 3ab6 77be
00000220: 7bc3 f83d 8338 853c 60ed 80be 07bd b8bb
00000230: 2d87 1d3e 15f7 013c 0374 03be 686d 473e
00000240: 8b45 333e a417 56be b5a2 473e 0c33 c53d
00000250: bf6d 363e f852 763e a778 37be 4380 76be
00000260: a78b 453e 2117 3abe 2728 bd3d cf3f 80be
00000270: e4d0 923d 811f 9c3d 0a51 44be 714a 613e
00000280: 6986 ef3d 140e fd3d 26b1 803d b66e f1bd
00000290: 256c b1bd ce89 2a3d e6a8 6e3e 22d7 823e
000002a0: bcbb 57be 7b9d 383b 4462 07be 222b 00be
000002b0: c9a7 233e 3a28 debd 14f0 1b3b cdeb 7a3e
000002c0: 57e1 093e 3b8a 6abe f437 7d3e 64af a1bd
000002d0: cf9f 9fbd 9e9b 263d 0dc7 423e 4ba6 5dbe
000002e0: 4f90 77bd fe1d d03d eb08 0abe c03f 673e
000002f0: 6082 cabc c273 5f3e 8380 fc3c 1223 a73c
00000300: c94a bcbc 9161 5a3e b29d 17bd

onnx::MatMul_33 f4 [13, 11]
0.12544276 0.2511804 -0.16499491 -0.038046103 0.27140015 0.03727206 0.11566621 -0.2555089
0.073381536 -0.029748447 -0.24252191 -0.27964196 0.015578096 0.25532135 -0.14817588 0.10313357
0.074242175 -0.26102856 0.027189739 -0.17861998 -0.14519894 -0.2235834 0.20077485 -0.09082445
0.22449802 0.20950313 0.039690044 -0.113436334 -0.23694421 0.20202443 0.23302904 -0.20077857
0.04529713 -0.17891674 -0.13616619 0.2693125 -0.18861668 0.10103783 0.10723828 0.23827063
0.2716436 0.2725106 0.22104384 -0.20637387 0.06866253 -0.07794429 0.06557309 0.22884981
0.21210346 0.23854971 0.23958115 0.026014972 0.25297827 -0.0803668 -0.09749016 -0.14511704
0.120782636 -0.11860844 0.21411425 -0.23299713 -0.26833758 0.1862728 -0.06254087 -0.027137427
-0.19201541 -0.24679305 0.0041653123 -0.2162524 -0.016218876 0.07912383 0.099979416 -0.14826913
-0.13786338 0.088926375 -0.19671692 0.12732162 -0.27329814 -0.007594848 -0.11130548 -0.0050940346
-0.20952772 0.08080023 0.23457399 0.18121547 0.059965283 0.027694019 1.8179575e-05 -0.26063615
0.044074025 -0.07503243 0.051932324 0.2092301 0.04262109 -0.14091843 0.10137555 0.15221801
0.2501715 0.017074047 0.15215361 0.20654452 0.052186772 -0.22523539 -0.12688956 -0.18903078
0.14876735 0.15084577 -0.029290682 0.10420473 0.2594211 -0.17576782 -0.13667426 -0.19282855
-0.073058076 -0.25308552 -0.08530796 -0.11644198 -0.16972737 -0.19958824 0.01347471 -0.22323953
-0.01900229 -0.26327786 -0.2572181 -0.21176718 0.23146392 0.0562362 -0.14491743 0.15404227
0.057248186 0.1883572 0.16690011 0.16808389 -0.18691905 0.16230235 -0.17802396 0.22104993
-0.26313022 0.15628625 0.15999818 -0.1132528 0.13347353 0.15527242 -0.16243972
00000000: 1174 003e b89a 803e 6df4 28be 3bd6 1bbd
00000010: f6f4 8a3e 96aa 183d 68e2 ec3d 10d2 82be
00000020: 0f49 963d 04b3 f3bc aa57 78be 3b2d 8fbe
00000030: 453b 7f3c 7bb9 823e 6bbb 17be b137 d33d
00000040: 480c 983d 89a5 85be 04bd de3c 28e8 36be
00000050: 08af 14be 0cf3 64be ec97 4d3e 2b02 babd
00000060: cfe2 653e fd87 563e 0792 223d 4f51 e8bd
00000070: 81a1 72be 7edf 4e3e 2a9f 6e3e e698 4dbe
00000080: 7c89 393d f335 37be 266f 0bbe 54e3 893e
00000090: bb24 41be ecec ce3d be9f db3d 37fd 733e
000000a0: df14 8b3e 8286 8b3e 5159 623e ac53 53be
000000b0: f19e 8c3d 42a1 9fbd 2f4b 863d 9b57 6a3e
000000c0: a631 593e 6046 743e c354 753e 5a1d d53c
000000d0: 5e86 813e 5997 a4bd eca8 c7bd 9099 14be
000000e0: e35c f73d fbe8 f2bd c440 5b3e cd96 6ebe
000000f0: 8b63 89be 4cbe 3e3e 6d15 80bd 4f4f debc
00000100: b09f 44be 51b7 7cbe 2c7d 883b 4571 5dbe
00000110: 73dd 84bc ad0b a23d 02c2 cc3d ddd3 17be
00000120: 0f2c 0dbe 081f b63d 2970 49be 9960 023e
00000130: bced 8bbe 34de f8bb 21f4 e3bd dceb a6bb
00000140: 6f8e 56be 977a a53d 2a34 703e 8c90 393e
00000150: 289e 753d 91de e23c 5780 9837 1a72 85be
00000160: f786 343d 9aaa 99bd fdb6 543d 6a40 563e
00000170: 7493 2e3d ec4c 10be fc9d cf3d 0adf 1b3e
00000180: 7b16 803e dfde 8b3c 28ce 1b3e 6880 533e
00000190: ccc1 553d 1ba4 66be 56ef 01be 4991 41be
000001a0: 7856 183e 5077 1a3e 03f3 efbc 4a69 d53d
000001b0: d8d2 843e 7bfc 33be 56f4 0bbe d974 45be
000001c0: 799f 95bd 6d94 81be f1b5 aebd 2279 eebd
000001d0: 03cd 2dbe dc60 4cbe 08c5 5c3c e798 64be
000001e0: b1aa 9bbc 5bcc 86be 17b2 83be 7fd9 58be
000001f0: e104 6d3e ee57 663d 3c65 14be 42bd 1d3e
00000200: 137d 6a3d b6e0 403e dde7 2a3e 2f1e 2c3e
00000210: b567 3fbe 9632 263e ea4b 36be ea5a 623e
00000220: 01b9 86be 8109 203e 90d6 233e 16f1 e7bd
00000230: 49ad 083e bcff 1e3e 9956 26be

onnx::MatMul_34 f4 [11, 9]
-0.054351054 0.10740458 0.28822637 0.22206117 -0.16492787 -0.26463783 -0.20196277 -0.23076983
-0.085042074 0.01626992 0.27034953 -0.13914849 -0.16371472 -0.25208604 -0.19104047 -0.28426227
0.005442111 0.23025851 0.044696957 0.24834105 -0.18761623 -0.19317235 0.07776441 -0.19523612
0.22320955 0.19718152 -0.25330114 0.3046784 -0.26754925 0.1792913 0.047991145 -0.15183495
0.29191115 0.055485114 -0.23677503 0.027411437 0.19937986 -0.28313103 0.13406937 -0.27973872
-0.22094578 0.16689143 -0.12539223 -0.031728823 0.08361415 -0.13763352 0.11635319 0.035196185
-0.11348869 -0.16669649 -0.06384075 -0.016732426 0.29160458 -0.21200384 0.13225521 -0.2599196
-0.15847874 0.18843947 -0.14282265 -0.27665058 -0.12766889 -0.025025306 -0.11309099 -0.012474359
-0.08267092 0.1537171 0.17738602 -0.2557848 0.25315315 0.15858118 0.0091548655 -0.1368614
-0.090622246 -0.20199864 -0.25623104 -0.06017019 -0.15998094 0.31408775 -0.006831784 -0.10764564
0.190488 0.19842584 -0.29028472 0.034828965 -0.013308732 0.015572463 -0.12592785 0.14080606
0.0800345 0.2578362 -0.11654007 0.008174274 -0.17195337 -0.15236019 -0.10934275 0.2813741
-0.29001185 -0.12334262 0.18867615
00000000: 369f 5ebd eff6 db3d 6892 933e 0164 633e
00000010: dae2 28be 9c7e 87be 54cf 4ebe ed4e 6cbe
00000020: 8a2a aebd 7f48 853c 416b 8a3e f17c 0ebe
00000030: d5a4 27be 6c11 81be 1da0 43be d38a 91be
00000040: bc53 b23b e3c8 6b3e 2814 373d 1e4d 7e3e
00000050: 781e 40be f9ce 45be f242 9f3d faeb 47be
00000060: 0b91 643e f4e9 493e b0b0 81be cffe 9b3e
00000070: 37fc 88be 2398 373e 5d92 443d 9f7a 1bbe
00000080: 6175 953e 5c44 633d 2775 72be f38d e03c
00000090: 3c2a 4c3e 8df6 90be 7b49 093e ea39 8fbe
000000a0: 9c3f 62be 96e5 2a3e d266 00be 15f6 01bd
000000b0: e53d ab3d cdef 0cbe 954a ee3d e029 103d
000000c0: c26c e8bd 7cb2 2abe f0be 82bd 7112 89bc
000000d0: 324d 953e 8917 59be e96d 073e 2f14 85be
000000e0: 4048 22be 47f6 403e 1a40 12be 25a5 8dbe
000000f0: a2bb 02be df01 cdbc 409c e7bd 4161 4cbc
00000100: 5f4f a9bd 0468 1d3e aea4 353e 3af6 82be
00000110: 4a9d 813e 1b63 223e 4afe 153c 6525 0cbe
00000120: 2898 b9bd bbd8 4ebe b730 83be 0475 76bd
00000130: 0bd2 23be 1cd0 a03e 28dd dfbb 5175 dcbd
00000140: 490f 433e 2530 4b3e 33a0 94be d1a8 0e3d
00000150: de0c 5abc a523 7f3c 3bf3 00be 772f 103e
00000160: 21e9 a33d 1b03 843e 8fac eebd 64ed 053c
00000170: 8b14 30be 4f04 1cbe 17ef dfbd 4410 903e
00000180: 6f7c 94be 0e9b fcbd 5234 413e

onnx::MatMul_35 f4 [9, 2]
0.2469454 0.021020617 0.30310702 -0.20457341 -0.11982264 -0.28587955 -0.14901172 -0.038581505
0.13316156 0.031760335 0.40701488 0.27179694 0.28499252 -0.106841825 0.067479484 0.08792053
0.42803365 -0.024368774
00000000: 41df 7c3e 6e33 ac3c d830 9b3e b17b 51be
00000010: 9365 f5bd ce5e 92be 8796 18be a407 1ebd
00000020: 815b 083e 2017 023d 4164 d03e f828 8b3e
00000030: 8aea 913e e3cf dabd af32 8a3d ae0f b43d
00000040: 3a27 db3e 06a1 c7bc
