Assets/model.onnx (onnx, 4768 bytes, 10 tensors)

0.bias f4 [20]
000000 82 c3 61 be ec f1 60 3e 1c ee ab bd e5 c1 fe 3c
       -0.22047237 0.21967286 -0.08395025 0.031098315
000010 1b 36 21 3c 3e c2 6e 3e 0f a6 a1 bd cb dd 33 3e
       0.00983956 0.23316285 -0.07893001 0.17565076
000020 f6 85 19 3e d1 f9 11 be 04 04 8b be 5b b9 c3 bb
       0.14992508 -0.14255454 -0.271515 -0.005973024
000030 81 c5 92 3e b3 31 4f 3e 67 51 c8 bd 30 15 ce 3c
       0.2866631 0.20233802 -0.09781151 0.025156587
000040 5e 61 60 3e b9 4f d3 3d 69 9c 03 3e 1c 7a 4f 3e
       0.21912143 0.1031794 0.12852634 0.20261425

2.bias f4 [16]
000000 35 16 19 3e d1 52 33 be 3b 67 e4 3d f0 71 c1 3c
       0.14949878 -0.1751206 0.11152502 0.0236139
000010 ad 85 17 be 23 05 ae bd e4 8d 86 3d 97 44 33 3e
       -0.14797087 -0.084970735 0.06570032 0.17506634
000020 46 4f 8e 3d a3 b8 e1 bb c8 fc 63 be 8c 2d 9a 3d
       0.06948714 -0.0068884655 -0.22264397 0.075282186
000030 9c 57 3d be 4e fe 63 be 46 77 34 3e 6d 36 2d bd
       -0.18490452 -0.22264978 0.17623624 -0.042288233

4.bias f4 [12]
000000 95 f4 22 3e 99 0e d9 3d 4c 3f 56 3e d3 8d ba bd
       0.15913613 0.105984874 0.20922583 -0.09109082
000010 f5 d4 38 3e 6d 78 28 3c ac ab d5 3d a1 37 70 bd
       0.18049987 0.010282618 0.104331344 -0.0586468
000020 fd d5 b2 bb 8d 21 3c 3e c1 b3 b3 bc 7a ba 0e be
       -0.0054576383 0.18372174 -0.0219363 -0.13938323

6.bias f4 [8]
000000 06 8d 8c bd c0 f9 c1 bc 03 66 98 3e 75 9e 81 be
       -0.068628356 -0.02367866 0.2976533 -0.25316206
000010 23 df 5a 3e f0 a6 0d 3d 74 2b 5b 3d b2 99 8d bd
       0.21374182 0.034583032 0.053508237 -0.06914081

8.bias f4 [4]
000000 13 aa 52 3f 61 d0 5b 3d 79 b1 68 bf f9 e5 5f bf
       0.8229076 0.053665522 -0.908958 -0.87460285

onnx::MatMul_31 f4 [10, 20]
000000 43 80 89 be 22 71 ea 3d 91 34 86 3e 8c a9 61 3e
       -0.26855668 0.114473596 0.2621198 0.22037333
000010 07 99 1d 3d ba 40 9d bd 44 e3 09 be d8 09 81 be
       0.038476016 -0.07678361 -0.13465601 -0.25202823
000020 d6 cf c5 3d a6 7b 53 3e bd 52 ae bd 01 db b6 3c
       0.09658782 0.20652637 -0.08511875 0.022321226
000030 c6 77 6b be 2c 18 91 be 90 29 e1 bd 79 aa 9b 3c
       -0.22994909 -0.28338754 -0.109942555 0.019002186
000040 52 42 a0 3d 8c cd 03 3e af ce 73 be 6f 21 6b be
       0.078251496 0.12871379 -0.23809312 -0.22961973
000050 3b 3f 77 bc 7c c4 e8 3d d0 12 8e 3d bd 03 b6 3b
       -0.015090759 0.113656014 0.06937182 0.005554645
000060 91 44 d8 3b 54 de 87 3d 5a 6c 5a 3e ba d0 49 3e
       0.0065999706 0.066342026 0.21330395 0.19708529
000070 0c da 62 bd 8e 41 1a be 84 ac 48 be e0 4a 12 bc
       -0.055383727 -0.1506407 -0.1959706 -0.008928984
000080 38 29 2b 3d 70 f0 33 3e 11 43 12 be 86 0a a6 bd
       0.041787356 0.17572188 -0.14283396 -0.08107476
000090 29 90 5d 3c ff a8 85 be 6a bc 7f 3e e6 69 61 3e
       0.01352314 -0.26105496 0.24974218 0.22013053
0000a0 56 a5 0f be 8c f9 86 be 6a a1 2c 3c f9 b9 b3 3c
       -0.14027914 -0.26362264 0.010536531 0.021939265
0000b0 89 86 2a 3e 89 4e 9e be 5d ec c1 3d 68 67 a2 bd
       0.16652884 -0.30919293 0.09468911 -0.079298794
0000c0 ea 51 95 3e 4c 08 e5 3d 49 eb db 3d ed e4 12 be
       0.29164058 0.11183223 0.107382365 -0.14345141
0000d0 cc 7d c1 3d a5 c4 86 bd 44 a0 3b 3b 93 b1 b5 bc
       0.09447822 -0.06580476 0.0028629461 -0.0221794
0000e0 88 06 9c 3d a2 34 44 bc 00 23 29 3e 96 06 88 be
       0.07618433 -0.011975439 0.16517258 -0.26567525
0000f0 03 45 7c be 75 ee 48 be 15 2f aa bd 68 23 b0 3d
       -0.24635701 -0.19622214 -0.083097614 0.08600503
000100 4b 72 0d be 73 83 2b bb 8f c2 8d 3e 74 3a 33 be
       -0.1381313 -0.002617088 0.276875 -0.17502767
000110 d9 09 00 3c 04 37 ed 3d 53 14 98 3e 0a a5 02 3e
       0.007814848 0.11582759 0.29703006 0.1275827
000120 a1 ab 1d be f4 3e 2c be 27 f7 88 3e ab 01 61 be
       -0.15397502 -0.1682089 0.26751062 -0.21973293
000130 34 b1 80 be 6a 21 67 be f6 18 80 be b7 aa 65 3d
       -0.25135195 -0.2257134 -0.25019044 0.05607101
000140 25 7e 7c 3e 8c fb 41 3e 0b e8 29 bd 65 b9 a1 be
       0.24657495 0.18943614 -0.04148106 -0.31586757
000150 92 fe 02 3e 64 8b 7b be 7c 1b 92 3d 51 42 27 be
       0.12792423 -0.24564892 0.071341485 -0.16333891
000160 87 63 4b 3e 54 f1 1a 3e 17 4b 20 be 5e ca 62 be
       0.19862185 0.15131122 -0.15653645 -0.2214751
000170 de 37 31 3e 5a 61 e4 3d e3 46 95 3e b2 4a 04 be
       0.17306468 0.11151381 0.29155645 -0.12919119
000180 97 ea 66 bb 80 f5 51 3e 98 54 27 3e 75 0d 26 be
       -0.0035235041 0.20503807 0.16340864 -0.16216071
000190 a3 ca 2e be 5f fe db 3d e1 43 4b be 78 17 86 bd
       -0.17069487 0.10741877 -0.19850112 -0.06547445
0001a0 4b 8b 60 be 92 95 89 bb c8 a9 a5 bd dd 4f ff bb
       -0.21928136 -0.0041987384 -0.08089024 -0.007791503
0001b0 bf c4 22 be cf 64 a0 3e 55 bc 6b 3e 22 30 37 3e
       -0.15895365 0.3132691 0.23021062 0.17889455
0001c0 d2 76 46 3e ad 3b 72 3e 31 37 92 3e 25 5c 29 3e
       0.19381264 0.23655577 0.28557733 0.16539057
0001d0 7d 4b 91 3e 80 c3 fd 39 62 91 3c 3e 64 00 5e 3e
       0.28377905 0.0004840158 0.18414834 0.21679837
0001e0 59 ab 98 be 6f 9f 55 be 3f ac c2 bd c7 b0 2f be
       -0.29818228 -0.208616 -0.095055096 -0.17157279
0001f0 ec 85 87 bb e2 73 eb bc ab b3 13 3e 91 0a 93 be
       -0.004135838 -0.02874178 0.14424007 -0.28719
000200 c2 1f 25 be 45 c1 87 3d dc 54 52 bb 9b 4f 9c be
       -0.16125396 0.0662866 -0.0032094037 -0.30529484
000210 38 d4 5b 3e b4 64 96 be 21 7a 93 3e bf 75 12 bd
       0.21467674 -0.29373705 0.28804114 -0.035756823
000220 a0 4b fa bd dc 40 ba bd 77 2a 48 be 51 97 79 be
       -0.122214556 -0.09094402 -0.19547449 -0.24374129
000230 70 a4 9d be af 58 a6 3b 54 ac 5f be 39 b6 cf 3b
       -0.30789518 0.00507649 -0.21843082 0.0063388613
000240 e8 6b e0 bc 5c 4e 68 be 3b 4b 87 bd 6b c9 4b be
       -0.027395204 -0.22686142 -0.06606146 -0.19901054
000250 21 12 8e 3e f0 f7 be 3d 25 d6 a1 3e 20 43 64 bd
       0.27748206 0.09324634 0.31608692 -0.055728078
000260 20 18 47 bc 27 ba 96 bd 30 90 97 3c f2 10 79 be
       -0.012151748 -0.073597245 0.018501371 -0.2432287
000270 13 4b 26 be 57 26 a4 3c c6 09 5e be eb be a1 be
       -0.16239576 0.020037813 -0.21683416 -0.3159097
000280 79 c3 97 3e 41 99 03 3e 02 3f 1f be f9 3e 92 3e
       0.2964132 0.1285143 -0.1555138 0.2856367
000290 57 62 d6 3c f8 3b 30 be 8c b5 0c be 4a 9b a1 bd
       0.026169939 -0.17210376 -0.1374113 -0.07890947
0002a0 6a e7 18 be bb 04 9b be f1 95 96 3e 88 b8 7a 3d
       -0.14932027 -0.30277047 0.2941127 0.06121114
0002b0 84 07 ff 3d 54 43 89 be cd 9b 8b 3e a4 74 a8 bd
       0.12452605 -0.2680918 0.27267304 -0.082253724
0002c0 4b 7b 7f be 8e ee 09 be a5 7c d8 bd 19 73 f1 bd
       -0.24949376 -0.13469908 -0.10570649 -0.11789531
0002d0 c0 f8 63 be 75 79 84 bd 9c 57 74 be eb 75 2d be
       -0.2226286 -0.064684786 -0.23861545 -0.16939513
0002e0 2d 3f 3c 3d 83 27 ad 3d ae ec c8 3d de a7 92 bc
       0.045958687 0.08454802 0.09810768 -0.017902311
0002f0 2b a3 74 be 8a 4d 1e 3e 55 c6 96 be e2 e9 5b 3d
       -0.23890369 0.15459266 -0.2944819 0.053689845
000300 22 80 59 3e 34 f4 d6 bd 80 5f b8 bd 43 22 4c 3e
       0.21240285 -0.10495797 -0.0900259 0.19934945
000310 71 b1 a1 bd 96 a4 05 3d 99 39 9a 3e 90 62 8f be
       -0.078951724 0.032627665 0.3012207 -0.28004885

onnx::MatMul_32 f4 [20, 16]
000000 79 6a ec bc 44 01 e8 3c d7 8a 01 be a8 ee 38 3e
       -0.028859364 0.028320916 -0.1265062 0.1805979
000010 38 68 ee bd 9d 6f ed bc 75 72 5f 3e 34 e6 2d bd
       -0.11640972 -0.028983885 0.21821006 -0.042455867
000020 ff 7e 21 3e fa ab 95 bd 08 f6 59 be 77 29 45 3e
       0.15771101 -0.073081926 -0.2128526 0.19254099
000030 96 d1 2d 3d 46 8b c8 3d 20 c3 65 3d 94 2f f5 bd
       0.042436205 0.09792189 0.05609429 -0.119719654
000040 07 ca b4 3d 9e 78 cf 3d 1c 89 c2 3d a0 a0 89 3d
       0.08827596 0.10130428 0.09498808 0.0672009
000050 31 32 0b 3e 35 b8 c8 3d bd 42 e3 3d e0 02 9e 3a
       0.13593365 0.0980076 0.11096714 0.00120553
000060 69 e2 8d bd 1d 1e 0f 3e 96 24 56 3e 58 a0 56 be
       -0.0692795 0.13976331 0.20912394 -0.20959604
000070 ed 9d 1b 3e 97 5b d0 bd 6c 30 92 3d 12 56 a7 bd
       0.15196963 -0.101737194 0.07138142 -0.081707135
000080 bc 17 48 be 97 f5 18 be 4c 40 dc 3d d6 98 00 3e
       -0.19540304 -0.14937435 0.10754451 0.12558302
000090 a9 0e d7 bc 64 03 db 3d 9d 12 72 3c e6 c2 1e 3e
       -0.026252108 0.10694006 0.014774946 0.15504035
0000a0 39 fb 0c 3d 30 b3 98 b9 e9 e5 a1 bd 73 22 22 be
       0.034419272 -0.00029125204 -0.0790518 -0.15833454
0000b0 1f 3d fe 3d e8 00 83 3c 3f d2 1a 3e 44 2e 40 3e
       0.12414002 0.015991643 0.15119265 0.18767649
0000c0 2d dd 4b 3e b8 4d 35 3c 57 a7 df bd 9e 16 f7 3d
       0.1990859 0.011065893 -0.109205894 0.12064861
0000d0 b3 d9 e3 bd 94 29 62 be 78 93 80 bc f6 0a ab 3c
       -0.11125507 -0.22086173 -0.015695319 0.02087925
0000e0 83 25 3f 3e 8e 3d b8 3d 5b 80 cc 3d d8 cb a7 3d
       0.18666653 0.089961156 0.09985419 0.08193177
0000f0 ba 8b f1 3d 3f 57 01 3e d4 08 08 be 8c 8f 1e be
       0.11794229 0.12630938 -0.13284618 -0.15484446
000100 ff cc b3 bc d7 80 50 be 20 38 26 be 30 81 04 be
       -0.021948336 -0.20361648 -0.16232347 -0.12939906
000110 41 c4 ff 3c 58 55 23 be c8 30 bd bd 6c 9c 28 bd
       0.03122151 -0.15950525 -0.0923782 -0.0411648
000120 d0 fe 4f be 2b e3 1f 3d 4e e0 00 3e d2 72 43 be
       -0.20312047 0.039035004 0.12585565 -0.19086769
000130 a1 42 99 bd 76 c6 2d be 2f fb 40 3d 9e 9f 0d be
       -0.074834116 -0.16970238 0.047114547 -0.1383042
000140 9b 52 22 3e 52 c9 31 3d 9e 73 34 3e 23 ba ff 3d
       0.15851824 0.043404885 0.1762223 0.12486675
000150 34 0a a1 bd 37 11 04 3e 5d b2 56 bd eb 3a 33 bb
       -0.07863274 0.12897192 -0.052416194 -0.002734835
000160 10 f4 0b be 4a cf 05 bd eb 1f 55 be 02 7d ef 3d
       -0.13667321 -0.03266839 -0.20812957 0.11693765
000170 f0 40 c6 bd 88 3b 65 3d 64 03 33 be c3 35 b4 bd
       -0.096803546 0.055964977 -0.17481762 -0.08799317
000180 d2 e5 44 3e e7 46 a4 3d 70 e9 2c be f8 c5 44 be
       0.19228294 0.08021336 -0.16885924 -0.19216144
000190 cc 7c 00 3e 74 55 f4 3d 77 69 a1 bd 27 ed 13 3e
       0.12547606 0.119303614 -0.07881444 0.14445935
0001a0 14 32 62 be 08 7b 56 be 3f ef 9b 3c 6f c7 03 be
       -0.22089416 -0.2094537 0.01903498 -0.12869047
0001b0 c0 26 b9 bd c8 32 fd 3d 7f e2 a3 bd a6 00 a7 bd
       -0.09040594 0.123632014 -0.08002185 -0.081544206
0001c0 9e 88 af 3d 9b f5 2e bd da 2d 0a be dd 8c 9d bc
       0.085709795 -0.042714696 -0.13494053 -0.019232208
0001d0 c2 40 1a be 8a e5 88 3d a6 df 4e 3e b3 16 bb bd
       -0.15063766 0.06684406 0.20202503 -0.09135189
0001e0 08 76 8e bc 85 b9 2d be b4 36 40 3e 17 88 ed 3d
       -0.017390266 -0.16965301 0.18770868 0.11598223
0001f0 c8 b6 16 be 51 72 24 bd f0 40 dc bd 3f c8 0c 3e
       -0.14718163 -0.040148083 -0.10754573 0.13748263
000200 c5 41 4b bd 96 de 0e be 45 15 dd bd 75 1f 99 bd
       -0.04962327 -0.13952097 -0.107950725 -0.07476703
000210 bd c9 86 bd be 5d d8 bb 19 99 b4 3d 09 89 46 be
       -0.06581447 -0.006602972 0.088182636 -0.19388212
000220 46 27 85 bd c0 a8 6f 3d df 73 0f bd 0e cb 06 bd
       -0.065016314 0.058510542 -0.035022613 -0.03290849
000230 fd 5c 18 3c 77 76 60 3e 7d b9 19 bc ae 97 50 3d
       0.009299514 0.21920191 -0.009382603 0.050925903
000240 19 32 35 bd 58 a2 3c 3e a9 11 b6 bd 9b 92 26 be
       -0.04423723 0.18421304 -0.08890087 -0.16266863
000250 b7 c1 fc bd 84 81 e4 bc 54 38 13 3e 0b 99 77 bd
       -0.12341636 -0.02789379 0.14376956 -0.060448688
000260 45 c0 9c bc 7a 72 eb 3d 11 d8 34 be 53 81 5a 3e
       -0.01913465 0.11496444 -0.17660548 0.21338396
000270 5a 0e 06 bd 0e 3a 14 3e 2f 26 cf 3d 03 e7 36 3d
       -0.03272853 0.14475271 0.10114705 0.044653904
000280 38 64 46 be da 79 62 3e 82 1f a9 bc 0d 0b 41 be
       -0.19374168 0.22116795 -0.020644907 -0.18851872
000290 87 ee 1d 3e 50 b5 8a bd 70 2a 8b 3d 4a 8b 8d bd
       0.15423022 -0.06772864 0.06795204 -0.06911333
0002a0 49 98 c3 bc 6b 81 b3 bd 86 5f 17 be 43 ea 44 3e
       -0.023876326 -0.08764919 -0.14782533 0.19229989
0002b0 5b 62 85 3d 34 c4 c8 3d 26 97 ae bd f8 95 dc bd
       0.065129004 0.09803048 -0.08524923 -0.10770792
0002c0 cf 3c 62 be c8 af 3e be a3 ce cc bc 78 c1 34 be
       -0.22093509 -0.18621743 -0.025000876 -0.17651927
0002d0 17 63 c1 3d b2 25 28 3d 42 74 fe 3d a4 62 5c 3d
       0.09442728 0.041051574 0.12424518 0.05380501
0002e0 e5 57 0a 3e ac c1 0b bd dd a4 2d be 00 4e 01 be
       0.13510092 -0.034120247 -0.16957422 -0.12627411
0002f0 31 42 9c 3c 20 2f d9 bd c9 0e 42 3e af e5 44 bd
       0.019074531 -0.106046915 0.18950953 -0.048070606
000300 5f 9b 22 3b c6 20 2a 3e 1d 7e be 3d 5f 0c aa 3c
       0.0024811847 0.16614065 0.09301398 0.020757852
000310 d5 82 1a 3e 8a 33 30 be 6e 46 ce 3d 77 ff f9 3d
       0.15088971 -0.1720716 0.10072027 0.12206929
000320 44 68 c7 3d ec 01 f2 3d 81 21 3a be c2 94 30 3e
       0.09736684 0.11816773 -0.18176843 0.17244247
000330 e2 5d af 3d 3a 6c 2d 3e a7 e9 5f 3e 5a b0 46 3e
       0.085628286 0.16935816 0.21866475 0.1940321
000340 16 eb 91 3d 08 e9 04 be 51 14 38 3e e2 bc c0 3d
       0.07124917 -0.1297952 0.179765 0.094110265
000350 2c 0d 4e be 21 cd df 3b 13 d0 1b be 02 91 1c be
       -0.20122212 0.006829873 -0.15216093 -0.15289691
000360 45 0d 1a 3d 43 6c 00 3e 20 c7 77 3d 5f e3 54 be
       0.03761031 0.12541299 0.060492635 -0.2078986
000370 d1 f0 4c bc 42 9e b3 bd 67 1b d9 3c bf e1 8c bd
       -0.012508587 -0.0877042 0.026502324 -0.06878995
000380 72 0b 19 be f3 e8 e9 bd d7 64 14 3d 76 80 20 3e
       -0.14945772 -0.11421385 0.03622898 0.15674004
000390 0a b4 38 3e 36 fd 38 3d b1 aa 8a 3d 5d 29 4e 3d
       0.1803743 0.045163356 0.06770838 0.050332416
0003a0 7f 4a c6 3c b1 5a 59 be 77 68 80 bd 44 62 59 3d
       0.024205444 -0.21226002 -0.06269925 0.05307223
0003b0 22 e3 44 3c 29 0d 25 bd 01 34 34 be ac b6 9f 3d
       0.012017043 -0.040295754 -0.17597963 0.07798514
0003c0 a6 cc 10 be f0 6f 46 3e 17 a8 ed bd 90 b6 43 3e
       -0.14140567 0.19378638 -0.11604326 0.19112611
0003d0 94 aa f1 bd 1d e0 24 3e 21 61 22 3e 92 66 4b be
       -0.11800113 0.16101117 0.15857364 -0.19863346
0003e0 fd f8 59 be c0 30 1b 3e e4 5d 26 3e d7 78 96 ba
       -0.21286388 0.15155315 0.16246754 -0.0011480105
0003f0 ba 71 1c 3d 5b f9 0c bd 69 68 34 be 3b 22 0e bd
       0.038194396 -0.03441749 -0.17617954 -0.034700613

onnx::MatMul_33 f4 [16, 12]
000000 c9 b0 77 3e 2f d3 3f 3e 04 17 ff 3d 5c e7 9f 3c
       0.24188532 0.18732904 0.12455562 0.0195195
000010 81 3c 53 3e d0 06 73 3c 1e 8a 47 bd de 23 77 bd
       0.20628549 0.014833167 -0.048715703 -0.06033694
000020 f1 8d 3c be 4b fe 28 3e 69 a0 bf 3d 05 4e 71 be
       -0.18413521 0.16503255 0.09356768 -0.23564918
000030 79 6e 23 be 65 d9 bc bd 81 e2 60 3e c7 70 50 be
       -0.1596011 -0.09221152 0.21961404 -0.20355521
000040 82 5b 78 3e 68 4c 19 3e e0 fe 95 b8 5a 15 19 be
       0.24253657 0.14970553 -7.152348e-05 -0.14949551
000050 54 31 2f 3d 6f 1c 23 be 69 eb b4 bd d1 27 3a 3e
       0.042771652 -0.15928815 -0.088339634 0.18179251
000060 f7 c1 03 3e 97 79 02 3e 55 bb 31 3c a3 d2 a9 3d
       0.1286696 0.12741695 0.010847886 0.08292129
000070 57 aa 42 3e 13 66 65 be e3 cc 95 3d 94 5f 45 bd
       0.19010292 -0.2240222 0.0731447 -0.048186854
000080 8e 9d 57 3e 2a 04 66 3e c6 6f 4c be 96 a7 76 3d
       0.21056196 0.22462526 -0.19964513 0.060218416
000090 94 8b db bd 7b a3 98 3d af 84 a6 bd 82 b0 dd bc
       -0.10719982 0.074530564 -0.08130776 -0.027061705
0000a0 4d 2f f1 3d 55 ed b6 bc 33 96 b8 3d d0 32 70 be
       0.117766 -0.022329966 0.09013023 -0.23456883
0000b0 d8 ed a6 3d 96 12 33 bd c9 d9 65 3e e4 47 19 3e
       0.08150834 -0.043718897 0.2244636 0.1496883
0000c0 10 c2 c6 bd d6 02 8b bb 18 bb 50 be 08 87 4a 3e
       -0.09704983 -0.0042422814 -0.2038387 0.19778073
0000d0 83 17 4c be 78 f2 2a be 30 cf c3 bd 24 47 4a bd
       -0.19930844 -0.16694057 -0.09561002 -0.04938425
0000e0 00 6f 32 be 63 f7 90 bd b2 c9 47 3c 03 e8 c8 bd
       -0.17425156 -0.07078435 0.012194084 -0.09809878
0000f0 c3 3f bd 3d 12 67 b6 3d 0c 4e 2d 3e 5a ae ac bd
       0.09240677 0.08906378 0.16924304 -0.084316924
000100 c1 1c 1e bd 00 6c 4b 3e a1 02 c2 bd 89 50 34 3d
       -0.03860164 0.19865417 -0.09473158 0.044022117
000110 23 5c 4f 3d f9 0a 1c 3e bf 69 d4 3d 72 5c 57 3e
       0.050624978 0.1523856 0.10371732 0.21031359
000120 21 6e 57 3e 7c e6 13 be 01 14 dd ba b0 b1 66 3e
       0.21038105 -0.14443392 -0.0016866924 0.2252872
000130 0d 12 31 be de fb 61 be 17 97 6f be ef 0a d0 3d
       -0.17292042 -0.22068736 -0.2339748 0.101583354
000140 77 3c 0a be e4 ca 7b be cc 26 f9 3d 69 59 13 3e
       -0.13499628 -0.24589115 0.12165603 0.14389576
000150 49 88 4b be 87 a7 18 be 04 c8 1f be 2b 67 55 bd
       -0.19876207 -0.14907657 -0.15603644 -0.05210034
000160 92 ad 81 bd 6c 22 3e 3e de b2 ea bd 73 a8 28 be
       -0.06331934 0.18567818 -0.114598975 -0.16470508
000170 78 5c 80 be be d4 3c 3d 1e 98 61 3e 59 d0 28 3e
       -0.25070548 0.046101324 0.22030684 0.16485728
000180 4e 9e dd bd 35 1f 1e 3d 6b 2f 7d bd 27 28 24 3e
       -0.1082121 0.03860398 -0.0618128 0.16030942
000190 8f 34 08 3e 53 7b 58 3e f1 2a ed 3d ae fe b8 3c
       0.133013 0.21140794 0.11580456 0.022582378
0001a0 ba ae 38 3e 36 20 e8 bd 34 df 28 bd 29 ac 31 be
       0.18035403 -0.11334269 -0.041228488 -0.1735083
0001b0 3a e5 4c 3e 25 f6 7a bd 03 fa a8 bc 25 29 64 3e
       0.20009318 -0.061269898 -0.020627027 0.2228132
0001c0 e5 f5 20 be d3 31 bc bd fc a9 3f 3e 41 db 21 bd
       -0.15718801 -0.09189191 0.18717188 -0.039515737
0001d0 0b ab 38 be 6b be f9 3d bc 2c b2 bd 55 fa d5 3d
       -0.18033998 0.121945225 -0.08699939 0.10448138
0001e0 1a c9 da bd 24 1f e9 bc 70 21 6e bd 37 a1 f5 3d
       -0.10682888 -0.028457232 -0.058137357 0.1199364
0001f0 d6 80 5b 3e fb ec 13 3e ab e0 35 be 50 61 ac bd
       0.21435866 0.1444587 -0.17761485 -0.084169984
000200 d6 7a d6 bc e8 e9 73 be dd f6 15 3e bf 98 bb bd
       -0.02618162 -0.23819697 0.14644952 -0.091599934
000210 07 a6 c2 bc a7 69 8f 3d 38 65 02 be ab 12 43 3d
       -0.023760809 0.070025735 -0.12733924 0.047625225
000220 ff 96 79 be 47 b3 8d 3c 16 91 7b bd e8 8c 1d 3d
       -0.24374007 0.0172974 -0.06141766 0.038464457
000230 d3 16 86 3d fa 23 59 bc 83 a1 2f 3d 24 65 27 3c
       0.06547322 -0.013253206 0.04287864 0.010216985
000240 7e 28 4c 3d 6a ff 4e 3d 15 f8 41 3e 11 11 ef 3c
       0.049843304 0.05053655 0.18942292 0.029182943
000250 4c c3 8a 3d 41 f6 2d be ec a6 a5 bd 48 3c 3a bd
       0.06775531 -0.1698847 -0.080884784 -0.045467645
000260 4e da 9d bd c2 df 2d be fe 02 5e be 25 c4 4e bd
       -0.07707654 -0.16979888 -0.21680829 -0.050480027
000270 95 7f 15 3e b7 c2 f9 3d 6c 92 8d bc 48 fd d1 bb
       0.1459945 0.12195342 -0.017281733 -0.0064083673
000280 c2 7f 4b be 55 6b ba bd c0 4e 0f bd 19 2f 1a 3e
       -0.19872954 -0.09102503 -0.03498721 0.15057029
000290 30 30 5f be 07 de 0d 3d 6e 50 41 3d 5f b6 c1 3d
       -0.21795726 0.03463557 0.047195844 0.09458613
0002a0 73 67 11 3e ff db 84 3a 08 c0 18 bd d6 2a 97 bd
       0.14199619 0.0010136365 -0.03729251 -0.07381217
0002b0 4b 1b 48 be df 5c 5c 3e ea 5c 4d 3e 64 56 1d be
       -0.19541661 0.21519803 0.20054975 -0.15364987
0002c0 ef 49 c6 3c c3 86 a7 3d 5c 8f f8 bc d6 24 3d 3e
       0.024205176 0.08180001 -0.030341797 0.18471083
0002d0 06 0f b4 3d 98 7c 6d be d2 30 c5 3b 86 7c 01 bd
       0.08791928 -0.2319206 0.0060177827 -0.031612895
0002e0 5c a5 21 bd 53 8b 2d 3e fd 25 d6 bd ad 9c ab 3c
       -0.03946434 0.16947679 -0.104564644 0.020948732
0002f0 b4 d7 47 3e d6 be 81 3d 2c 6d b4 3d 39 8b f6 3d
       0.19515878 0.06335227 0.088098854 0.12038273

onnx::MatMul_34 f4 [12, 8]
000000 7d 7b 44 3e 6e 99 a4 3d 5a e3 2b be 26 9f b1 bd
       0.19187732 0.08037077 -0.16785946 -0.08672933
000010 08 3f 50 3e f5 c5 60 3e ed 11 e5 bd 6a 44 0e be
       0.20336545 0.21950515 -0.1118506 -0.13893285
000020 70 2a 1a be ee 73 14 be 58 06 e3 3d 64 92 6e be
       -0.15055251 -0.14497349 0.11085194 -0.23298031
000030 55 cc 9d bd e0 cc 27 be 06 56 70 3e 89 cf 4d 3d
       -0.07704989 -0.16386747 0.23470315 0.05024675
000040 5a de 3c be bc 86 80 3b fb 59 f6 3d 41 95 aa 3d
       -0.18444195 0.0039223116 0.12028881 0.08329249
000050 f4 98 91 3e 03 3f 77 bd bf 82 80 be 69 be 33 be
       0.28437006 -0.060362827 -0.2509975 -0.17553104
000060 7b 81 2f 3e 73 63 58 3e 1e 2e 52 3e 9a c9 7a be
       0.17139237 0.21131687 0.20525405 -0.24490967
000070 77 5c 6e 3e 2b ff 67 bd 8a c6 34 bd 30 29 1b be
       0.2327746 -0.05663983 -0.044134654 -0.1515243
000080 f2 f3 85 bd 8c c2 45 3e 29 5b 90 3e 98 bd 4a 3d
       -0.065406695 0.19312495 0.2819455 0.049497217
000090 8a 1d 8e 3e 57 b5 0b 3d 68 ee 7e 3e 58 b9 68 bd
       0.27756912 0.034108486 0.24895632 -0.056817383
0000a0 b3 48 67 be ce 57 48 3c 4e eb 56 be c7 c0 df bd
       -0.22586326 0.0122279655 -0.20988199 -0.10925441
0000b0 66 2d 43 be f5 d1 81 3e 17 7c 27 be 2b 37 f3 bd
       -0.19060287 0.25355497 -0.1635593 -0.11875757
0000c0 56 0c 29 3e cc 40 92 3c 63 81 2c 3e 00 db b8 3d
       0.16508612 0.017853163 0.16846232 0.09026146
0000d0 7d 30 97 3e 9b 6d 0d be 22 4d 04 3e 90 32 27 3e
       0.2952918 -0.13811342 0.12920049 0.16327882
0000e0 32 c1 13 3e ae 5d 61 be c3 ad 5f be 98 4a 06 be
       0.14429167 -0.22008392 -0.21843629 -0.13114393
0000f0 14 f4 70 3e cc f4 09 3e 31 d9 26 be 86 0b 80 be
       0.23530608 0.13472289 -0.1629379 -0.25008792
000100 25 fd ea bd 8b c7 2d 3d d3 51 8f bd 92 ce 31 3e
       -0.11474065 0.042426627 -0.069980286 0.17363957
000110 6d 0c 74 be 1a b4 42 3e 28 87 57 be 11 7f 9c 3d
       -0.23832865 0.19014016 -0.21047652 0.076414235
000120 e1 74 5f 3e aa f7 85 3e 8f 91 36 bd 6e ba 7b be
       0.2182193 0.26165515 -0.04457241 -0.24582836
000130 ed e0 40 3c 2f 36 8b 3e 93 7a 23 3e 66 bf 8f bd
       0.0117723765 0.27189776 0.15964727 -0.07018928
000140 65 dd a5 3e 07 4b c2 3d d8 34 7e be d4 e2 88 be
       0.32395473 0.094869666 -0.24824846 -0.26735556
000150 ef 93 2a be 6e ec 18 be 85 82 27 be 67 c8 72 3d
       -0.16657995 -0.14933941 -0.16358383 0.05927315
000160 06 02 6e 3e 98 17 19 bd 3f 98 48 be c3 92 8a 3e
       0.2324296 -0.037376016 -0.19589327 0.27065095
000170 22 40 81 b8 13 2b 17 be 82 b5 53 be 17 02 6a 3e
       -6.163145e-05 -0.14762525 -0.20674708 0.2285236

onnx::MatMul_35 f4 [8, 4]
000000 c1 bf e8 3e c5 ff 74 3e d5 7d c5 bc 6e b0 e0 be
       0.45458797 0.23925693 -0.024107853 -0.43884605
000010 6d bc a4 3c 3b 1c cc bd 50 fe 75 be cc a4 78 bd
       0.02010938 -0.09966322 -0.24022794 -0.060704038
000020 62 d6 6a 3d 40 5d 80 3e 4e c5 42 be 6a 38 0e bf
       0.057333358 0.25071144 -0.19020578 -0.5555483
000030 62 32 f9 bd d4 bc 4d bd 0a 2a ad be b5 43 b0 bb
       -0.12167813 -0.05022891 -0.33821136 -0.005379165
000040 8e 55 b9 3d ca 57 b1 3d 52 77 09 bf 68 20 0a bf
       0.090495214 0.086593226 -0.53697693 -0.539557
000050 9c a2 ba 3d cf 80 f6 bd 54 83 e8 be d3 c6 d1 bd
       0.091130465 -0.12036287 -0.45412695 -0.10243001
000060 00 33 24 3e 1f 2e ad 3e 16 3c 84 be 9d 86 8d be
       0.1603508 0.3382425 -0.25827092 -0.27641764
000070 0d 0c 71 bd e0 fc 5b bd 6f 98 8d be 86 02 c9 be
       -0.058849383 -0.053707957 -0.2765536 -0.39259738
