Assets/model.onnx (onnx, 3606 bytes, 10 tensors)

0.bias f4 [15]
0	0x3d73e7e6	0.059547327
1	0x3ebc55c6	0.3678419
2	0xbde22ca0	-0.11043668
3	0x3dcbbdcc	0.0994831
4	0x3e8d38ec	0.2758249
5	0x3eb560a3	0.3542529
6	0xbe95ac7a	-0.29233152
7	0xbe767b5a	-0.24070492
8	0x3a5cf8fd	0.0008429436
9	0xbd723f39	-0.059142325
10	0xbe717a75	-0.2358187
11	0x3ebbedc6	0.36704844
12	0xbbb72583	-0.0055891885
13	0xbebfca25	-0.37458912
14	0xbc776ec3	-0.015102091

2.bias f4 [13]
0	0x3d45e5c5	0.04831483
1	0x3c95b17c	0.018273108
2	0xbe46b498	-0.19404829
3	0x3de5efb2	0.11227359
4	0x3dd16d82	0.10225965
5	0xbd977734	-0.07395783
6	0xbd58a33b	-0.052890044
7	0xbe17a567	-0.1480919
8	0xbe586054	-0.21130496
9	0x3e525b13	0.20542555
10	0x3d85dbf9	0.06536097
11	0x3e682f28	0.22674239
12	0xbd198ff6	-0.037490807

4.bias f4 [11]
0	0xbe89baa4	-0.26900208
1	0x3e33f969	0.17575611
2	0xbdd442e2	-0.103643194
3	0x3d8a968c	0.06766996
4	0x3df865d5	0.12128798
5	0xbe53e363	-0.2069221
6	0x3da60323	0.08106067
7	0xbda67cd1	-0.081292756
8	0xbe0cfb2a	-0.13767686
9	0xbe34d9fa	-0.17661276
10	0x3df406e1	0.119153745

6.bias f4 [9]
0	0xbd4d3b19	-0.050105188
1	0xbe2f2683	-0.17104535
2	0x3deee76c	0.11665234
3	0x3e79fb6d	0.24412318
4	0x3e886b3b	0.2664431
5	0xbe64be1b	-0.22338144
6	0xbe78aa87	-0.24283801
7	0x3cd99322	0.026559416
8	0xbc9172dc	-0.017754965

8.bias f4 [2]
0	0x3dcf104c	0.1011053
1	0xbe2ff0f8	-0.17181766

onnx::MatMul_31 f4 [7, 15]
0	0xba3b7dc9	-0.00071522273
1	0xbb3b33b0	-0.0028564744
2	0xbe887105	-0.26648727
3	0x3ea118ce	0.31464237
4	0x3e52233d	0.20521255
5	0x3eb2876f	0.34868953
6	0x3e271ff9	0.1632079
7	0xbdaf6c8e	-0.08565627
8	0x3da30a77	0.079609804
9	0x3e32d498	0.1746391
10	0xbdce96a3	-0.100873254
11	0xbd1d46b8	-0.03839752
12	0x3de18125	0.110109605
13	0x3c82d816	0.015972178
14	0xbe66eed9	-0.2255205
15	0x3e8d69ce	0.27619785
16	0xbe20c009	-0.15698256
17	0xbeaf5e1a	-0.3425148
18	0xbdb27658	-0.087139785
19	0x3d47e409	0.048801456
20	0x3ea63a85	0.32466522
21	0xbd60186b	-0.054710787
22	0x3e0cc6d1	0.13747717
23	0xbda494b3	-0.080361746
24	0xbe9344d9	-0.28763464
25	0xbebea8ca	-0.3723815
26	0xbe11a831	-0.14224316
27	0xbeba9c2e	-0.3644728
28	0xbd698aac	-0.057017013
29	0x3b8ade12	0.0042378986
30	0xbe72b3ae	-0.23701355
31	0xbd5edc26	-0.05440917
32	0x3d1b7085	0.037949104
33	0x3e963ede	0.2934484
34	0x3ac31469	0.0014883402
35	0xbcc49425	-0.023996422
36	0xbe14a387	-0.14515506
37	0xbe86c3ed	-0.26321355
38	0xbe2d33c2	-0.16914275
39	0x3c1083b8	0.008820467
40	0x3c09fdb9	0.008422309
41	0x3cfb0480	0.030641794
42	0x3e9d44dd	0.307166
43	0xbc4c9c27	-0.0124884015
44	0xbda89588	-0.08231646
45	0xbebfc2f3	-0.37453422
46	0x3e12d44e	0.143388
47	0x3ea6010a	0.32422668
48	0x3e411891	0.18857028
49	0xbd6eccf8	-0.058300942
50	0xbe8358a7	-0.25653574
51	0x3df91064	0.121613294
52	0x3e82c656	0.25541943
53	0x3ea46cf9	0.3211439
54	0xbd8ec9a5	-0.069720544
55	0xbe812f33	-0.25231323
56	0xbe85d004	-0.26135266
57	0xbe4dcd8d	-0.20097943
58	0xbdefa3a8	-0.11701137
59	0x3e0521bc	0.1300115
60	0x3d4c2ae5	0.049845595
61	0xbe2aa724	-0.16665322
62	0x3e492d49	0.19646181
63	0xbe9957bb	-0.29949746
64	0xbe6f9113	-0.23395185
65	0xbd94e875	-0.072709
66	0xbe862dbe	-0.26206774
67	0xbea1072e	-0.3145079
68	0xbdeff9a4	-0.11717537
69	0x3e34c43d	0.17652984
70	0x3e75e7e2	0.24014238
71	0x3e212056	0.15734991
72	0xbd470d52	-0.048596688
73	0xbcbe0086	-0.023193609
74	0xbb35130d	-0.0027629763
75	0x3e146d4d	0.1449482
76	0x3e6e217c	0.23254961
77	0x3e8cdd4f	0.27512595
78	0xbe797ba2	-0.24363568
79	0x3eb8bb50	0.36080408
80	0xbd6377e3	-0.055534255
81	0xbd1fe727	-0.039038803
82	0x3d8d4c85	0.068993606
83	0xbd8e86a1	-0.06959272
84	0x3df3cd58	0.119044006
85	0x3dadc199	0.084841914
86	0xbce576d5	-0.028010765
87	0xbdc1f350	-0.09470236
88	0x3d8f3001	0.06991578
89	0x3d1da1df	0.03848445
90	0xbea491ad	-0.32142392
91	0xbdf4843a	-0.11939283
92	0xbeaa1d6e	-0.33225578
93	0xbe84e386	-0.25954837
94	0xbe0b06c2	-0.13576797
95	0xbe09805f	-0.13427876
96	0x3eb63089	0.35583904
97	0x3e270361	0.16309883
98	0x3e2f0ab0	0.1709392
99	0xbe91fe3d	-0.2851428
100	0xbe7327f9	-0.23745717
101	0xbe811954	-0.25214636
102	0x3d42c9b0	0.047555625
103	0x3eaa599e	0.33271497
104	0xbe748ce7	-0.23881875

onnx::MatMul_32 f4 [15, 13]
0	0xbe26e5f4	-0.16298658
1	0x3e4d24d2	0.20033577
2	0x3d03d61e	0.03218662
3	0xbdc92dfe	-0.098232254
4	0xbcd54a31	-0.026036354
5	0xbe00b267	-0.12568055
6	0x3da0151d	0.07816527
7	0xbe323929	-0.17404617
8	0x3cf401cb	0.029786011
9	0x3db1dc27	0.08684569
10	0x3e27942a	0.16365114
11	0xbcbb35d3	-0.022852814
12	0x3c797384	0.015225295
13	0x3d5eab8f	0.05436283
14	0xbe18df88	-0.1492902
15	0xbe46bbaf	-0.19407533
16	0xbdf109c4	-0.11769441
17	0x3e40e604	0.18837744
18	0x3cd645a6	0.026156258
19	0x3dce0c14	0.100608975
20	0x3e7a86b5	0.24465449
21	0x3d8a2ac7	0.067464404
22	0xbe136212	-0.1439288
23	0xbe56b211	-0.20966364
24	0x3e465b26	0.19370708
25	0x3e0964bc	0.13417333
26	0x3cd37e94	0.025817193
27	0x3e031303	0.12800221
28	0x3e21fe0a	0.15819564
29	0xbe30c9c7	-0.17264472
30	0x3e75ee09	0.24016584
31	0xbdfabac7	-0.12242656
32	0xbe271e4b	-0.1632015
33	0xbe6f0ff1	-0.23345925
34	0xbe61dcd6	-0.22056898
35	0xbe3826b5	-0.17983516
36	0x3e6d1d50	0.23155713
37	0x3ac372ce	0.0014911534
38	0xbe295186	-0.16535005
39	0xbc98f3fa	-0.018671025
40	0x3bee481a	0.007271779
41	0xbd0c1362	-0.034198172
42	0xbe455055	-0.19268925
43	0xbe1ce1f7	-0.15320574
44	0x3df953aa	0.12174161
45	0xbe699ba9	-0.22813286
46	0x3cb99673	0.022654748
47	0xbc2705ba	-0.010194236
48	0xbe77bbcd	-0.24192734
49	0xbe0b3ef3	-0.13598232
50	0x3e04925f	0.12946461
51	0xbe4ae3c4	-0.19813448
52	0x3e263389	0.16230597
53	0xbe2982b7	-0.1655377
54	0x3dc04bf8	0.0938949
55	0x3e1d7527	0.15376721
56	0xbe49b5ad	-0.1969821
57	0xbe7b8227	-0.24561368
58	0x3d4f9a9a	0.05068455
59	0x3d83048f	0.06397354
60	0xbe3289e3	-0.17435412
61	0x3e522c3a	0.20524684
62	0xbe2764ce	-0.16347048
63	0x3e40c809	0.18826307
64	0x3d7d27ec	0.06180565
65	0x3ddd553b	0.10807272
66	0x3dc6cb6e	0.0970677
67	0x3e840e54	0.25792181
68	0xbe533caf	-0.20628618
69	0x3e390484	0.18068129
70	0xbde15ef2	-0.110044375
71	0x3d846e47	0.06466346
72	0xbe1e1937	-0.15439306
73	0x3e5524db	0.2081484
74	0xbe305fa9	-0.17223991
75	0xbd3c3aa3	-0.045954358
76	0xbe5b3758	-0.2140783
77	0xbe688cf7	-0.22710024
78	0xbd01935b	-0.03163467
79	0xbc159d47	-0.009131736
80	0x3e3bd6d0	0.18343663
81	0xbe7e4334	-0.24830323
82	0x3e7df2c2	0.24799636
83	0x3dbe2c28	0.09285766
84	0xbc4c2765	-0.012460564
85	0xbca0bdb8	-0.019621715
86	0x3d7cc85d	0.06171452
87	0xbe0aed69	-0.13567127
88	0xbe03409d	-0.12817617
89	0x3e3c354e	0.18379709
90	0xbce0db26	-0.027448248
91	0x3e139952	0.14413956
92	0xbe666b7b	-0.22501938
93	0x3e154cc0	0.14580059
94	0x3e3a1c78	0.18174922
95	0x3d931e92	0.07183565
96	0x3d1d2fd1	0.03837568
97	0xbcde97ca	-0.027171988
98	0xbd15ef4e	-0.03660517
99	0x3d6ccb37	0.05781099
100	0xbe22b15c	-0.1588797
101	0xbe7ac0a6	-0.24487552
102	0xbe0d8814	-0.13821441
103	0xbe4f168b	-0.20223443
104	0xbe5e1f2a	-0.21691576
105	0x3d821207	0.06351095
106	0x3e639ca1	0.22227718
107	0x3db5ca2d	0.088764526
108	0xbdef985e	-0.116989836
109	0xbc378a7b	-0.01120245
110	0xbe28466f	-0.16433118
111	0x3d6db55d	0.05803429
112	0xbe0792ba	-0.13239565
113	0xbd2f57de	-0.042808406
114	0xbe574dc5	-0.2102576
115	0x3e1bd4fe	0.15217969
116	0xbcc37b67	-0.023862554
117	0x3d497a04	0.04918863
118	0x3e492404	0.19642645
119	0xbd948c6d	-0.072533466
120	0xbd9e4f77	-0.077300005
121	0xbdebdcfd	-0.115167595
122	0x3e0846fd	0.1330833
123	0xbc3b8b11	-0.01144673
124	0x3e824840	0.25445747
125	0xbe38c3a5	-0.18043382
126	0x3e32c2d2	0.1745713
127	0x3e36b246	0.17841443
128	0xbe30d031	-0.17266919
129	0xbd8efff2	-0.069824114
130	0x3c29d715	0.010366221
131	0xbdeb7f30	-0.114988685
132	0xbc032f0a	-0.00800682
133	0x3dd4122f	0.10355031
134	0xbd7f037b	-0.06225918
135	0xbe80b6a0	-0.25139332
136	0xbe344543	-0.17604546
137	0xbbd3dbad	-0.0064653964
138	0x3bb114c4	0.005404087
139	0x3d4e57eb	0.050376814
140	0xbe78c710	-0.24294686
141	0x3e10c2dc	0.14136833
142	0x3d565d45	0.052335043
143	0xbbeaa569	-0.0071608317
144	0xbd988d9c	-0.07448885
145	0x3cc0092d	0.023441875
146	0x3dfd94d4	0.12381902
147	0x3e37190e	0.17880651
148	0x3e2405a3	0.16017775
149	0x3de7e9ca	0.113238886
150	0xbe5538b1	-0.20822407
151	0x3e507179	0.20355786
152	0x3d98519d	0.074374415
153	0x3e1d3960	0.15353918
154	0xbe04f7e7	-0.12985192
155	0x3e6e2b9c	0.23258823
156	0xbd9690c5	-0.07351831
157	0xbe7d3ef6	-0.24731049
158	0x3e61d019	0.22052039
159	0x3cb41d52	0.021986637
160	0x3e53e533	0.20692901
161	0xbe0acc80	-0.13554573
162	0xbcec4825	-0.028842995
163	0xbdd87162	-0.10568501
164	0xbe1854b0	-0.14876056
165	0x3cd58b44	0.026067384
166	0x3db2967d	0.087201096
167	0x3e2c6bc8	0.1683799
168	0xbd6886f9	-0.056769345
169	0x3d7211b5	0.059098918
170	0xbe35e980	-0.17764854
171	0xbe0683ef	-0.13136266
172	0xbe302652	-0.17202118
173	0x3d17092c	0.03687398
174	0xbde34e4b	-0.110989176
175	0xbe807a94	-0.2509352
176	0x3da79d76	0.0818433
177	0xbd0ca929	-0.03434101
178	0x3d9757de	0.07389806
179	0xbe695b30	-0.22788692
180	0xbe828b8a	-0.25497085
181	0xbdc7d095	-0.09756581
182	0x3e4e8252	0.20166901
183	0x3ddadabe	0.10686253
184	0xbe04a358	-0.12952936
185	0xbe1e9330	-0.15485835
186	0xbe603676	-0.21895775
187	0x3dc7358e	0.097270116
188	0xbe1bd02f	-0.15216134
189	0x3e416d52	0.18889359
190	0x3e27df33	0.16393737
191	0xbe2f1406	-0.17097482
192	0x3c3af4dc	0.011410918
193	0xbe41956e	-0.18904659
194	0xbe387908	-0.1801492

onnx::MatMul_33 f4 [13, 11]
0	0x3c8a1d28	0.016859606
1	0xbd56efcb	-0.05247478
2	0xbe536bc5	-0.2064658
3	0xbe697203	-0.22797398
4	0xbe8cd5a5	-0.27506748
5	0xbc869043	-0.016426211
6	0x3e6a1b81	0.22862054
7	0x3e2fa4dc	0.17152733
8	0xbe0e78c6	-0.13913259
9	0xbdd1a7dc	-0.10237095
10	0xbe2d0af3	-0.16898708
11	0xbd07108a	-0.032974757
12	0x3e82bc59	0.25534323
13	0xbdd1a8d9	-0.10237283
14	0xbe03147b	-0.12800781
15	0x3e2bcdab	0.16777675
16	0xbdd69bb0	-0.10478914
17	0x3d82f30b	0.06394013
18	0xbdafef4d	-0.08590565
19	0xbd6691dd	-0.05629145
20	0x3e1bb80f	0.15206932
21	0x3e388e67	0.18023072
22	0x3e576f65	0.21038587
23	0xbe33be28	-0.17553008
24	0xbdd1ed74	-0.10250369
25	0xbcaf70fb	-0.021416178
26	0xbe598468	-0.21241915
27	0xbe510d66	-0.20415267
28	0xbe7d2f88	-0.24725163
29	0xbe7925dd	-0.2433085
30	0xbe8b6450	-0.2722497
31	0x3e850ced	0.25986424
32	0x3e004488	0.12526143
33	0xbddfd4d1	-0.109292634
34	0x3dc24610	0.094860196
35	0x3dfb2981	0.122637756
36	0x3cc128b6	0.023578983
37	0xbd355833	-0.044273566
38	0xbe4cd7bb	-0.2000417
39	0xbd0b138f	-0.0339542
40	0x3d3cb6b1	0.046072666
41	0x3d9e457d	0.077280976
42	0x3e87df69	0.26537636
43	0xbdd1886d	-0.10231099
44	0x3e6388a3	0.22220092
45	0xbe195248	-0.14972794
46	0x3e27101d	0.1631474
47	0x3dca31b8	0.09872764
48	0xbe42c40d	-0.190201
49	0xbddcd5a9	-0.1078294
50	0xbdba7c1f	-0.091057055
51	0xbe8a0740	-0.26958656
52	0x3c8e0a01	0.017338755
53	0xbd8ae597	-0.06782072
54	0x3dbf955b	0.09354659
55	0x3c243375	0.010022034
56	0xbe818f9f	-0.25304887
57	0x3e73552e	0.23762962
58	0xbe027dc7	-0.12743293
59	0xbe02b222	-0.12763265
60	0x3c9fd5a6	0.019511055
61	0xbdacf288	-0.08444697
62	0xbe387b80	-0.18015862
63	0x3c4af0fe	0.012386559
64	0xbe7683ab	-0.24073665
65	0x3e8381dd	0.25685015
66	0xbe09ebbb	-0.1346883
67	0xbd85f989	-0.06541736
68	0x3dd3a75c	0.10334656
69	0x3e62cc6d	0.22148295
70	0x3d88b1aa	0.06674512
71	0xbe2223f2	-0.15834025
72	0x3db160a4	0.08661011
73	0xbe08d91f	-0.13364075
74	0x3e827e74	0.254871
75	0x3d752e47	0.059858587
76	0x3dbfbc1f	0.09362053
77	0xbe0898ae	-0.13339493
78	0x3d83354e	0.064066514
79	0x3e00916a	0.12555471
80	0x3e00e150	0.1258595
81	0xbd2083c2	-0.039188154
82	0x3e68f967	0.2275139
83	0xbdb18fe2	-0.086700216
84	0xbe57b11e	-0.21063659
85	0x3de8ac34	0.1136097
86	0xbd227739	-0.03966448
87	0x3caf3ef4	0.021392323
88	0x3e82f452	0.25577027
89	0xbe239fa4	-0.15978867
90	0xbb52f950	-0.003219206
91	0x3d754e87	0.059889343
92	0xbdab8c99	-0.08376426
93	0x3db50c27	0.088402085
94	0xbaf2a643	-0.0018512685
95	0x3e827a99	0.2548416
96	0xbe662b1a	-0.2247738
97	0x3e70c268	0.2351166
98	0xbc46a71a	-0.012124801
99	0x3e6627dd	0.22476144
100	0x3e7abd4c	0.24486274
101	0x3e27be28	0.16381133
102	0xbde36a40	-0.1110425
103	0x3cf9e85d	0.030506307
104	0xbe6056d4	-0.21908122
105	0xbe77c048	-0.24194443
106	0x3d89b44e	0.067238435
107	0x3e8af29a	0.27138215
108	0x3d716b28	0.058940083
109	0xbe6b1888	-0.22958577
110	0xbe5f6bc3	-0.21818452
111	0xbcd8ac00	-0.026449203
112	0xbe8a2f54	-0.26989233
113	0x3dd8be6b	0.10583194
114	0x3e3b03a1	0.18263103
115	0xbd3b685a	-0.045753814
116	0x3e151688	0.14559376
117	0x3e771711	0.24129893
118	0xbd10a4ac	-0.035313293
119	0xbe4813c2	-0.19538787
120	0x3cf778b4	0.030208923
121	0xbe69f0d0	-0.22845769
122	0xbde81ac1	-0.11333228
123	0xbe2599b7	-0.16171919
124	0x3e1c9635	0.15291674
125	0x3e14b45c	0.14521927
126	0x3baf7434	0.0053544287
127	0xbe11b11f	-0.14227723
128	0xbe13e1ba	-0.14441577
129	0xbe72a5b8	-0.23696029
130	0xbe09789a	-0.13424912
131	0xbe320a25	-0.17386682
132	0xbd0b8dd9	-0.034070823
133	0xbe8a6da0	-0.27036762
134	0xbe0d4666	-0.13796386
135	0xbe01c52b	-0.1267287
136	0xbcbe0d88	-0.023199812
137	0xbe86cea6	-0.26329535
138	0x3c0c6087	0.008567936
139	0x3dcc753c	0.09983298
140	0x3d9c067a	0.07618423
141	0x3e6c2cc9	0.23063959
142	0xbe8796c8	-0.26482224

onnx::MatMul_34 f4 [11, 9]
0	0xbe1942dd	-0.14966913
1	0xba7cb6f6	-0.00096403004
2	0x3e97ed1e	0.29673094
3	0x3de4a38c	0.111640066
4	0xbdfaa614	-0.12238708
5	0x3e84ed4a	0.25962287
6	0x3e708874	0.23489553
7	0x3e753ddb	0.23949377
8	0x3d2056bd	0.03914522
9	0xbe6f272e	-0.2335479
10	0xbda8f0b5	-0.08249036
11	0x3cbfeea1	0.023429217
12	0x3e116554	0.1419881
13	0x3e78cbc6	0.24296483
14	0x3e5d8399	0.21632232
15	0x3e2c1544	0.16804987
16	0x3e25d7ec	0.16195649
17	0xbe8d4384	-0.27590573
18	0xbe02b04a	-0.12762561
19	0x3e29763a	0.16549006
20	0xbd204122	-0.039124615
21	0xbe851d48	-0.25998902
22	0x3e8cd9ee	0.27510017
23	0xbe43d75e	-0.19125125
24	0x3cda92f3	0.026681399
25	0xbe12d28c	-0.1433813
26	0x3d81ae76	0.06332104
27	0xb979ac48	-0.0002381067
28	0xbe629d07	-0.22130214
29	0x3e1cc0d5	0.15307935
30	0xbd7aaefe	-0.06120204
31	0xbe7e8be1	-0.24858047
32	0x3e440f58	0.19146478
33	0xbdb6c4ef	-0.08924281
34	0xbc059cf0	-0.008155093
35	0x3cc974b0	0.024591774
36	0x3e1c0bd5	0.15238889
37	0x3d7447da	0.059638835
38	0x39c9cd40	0.0003849063
39	0xbde8d54f	-0.113688104
40	0xbd8acd92	-0.06777491
41	0xbd32475b	-0.04352508
42	0xbda87357	-0.08225124
43	0xbe963d15	-0.29343477
44	0x3d588fc4	0.05287148
45	0xbe2c82c7	-0.16846763
46	0xbe88c24e	-0.26710743
47	0xbe1d3fc9	-0.15356363
48	0x3e039bb3	0.12852363
49	0x3e422f95	0.18963464
50	0xbd8a960c	-0.067669004
51	0xbd960fff	-0.0732727
52	0xbda7044d	-0.08155117
53	0x3d9b42f5	0.075811304
54	0x3c308b8e	0.01077546
55	0x3e000f83	0.12505917
56	0xbcb0b19a	-0.021569062
57	0x3e8587a4	0.26080048
58	0x3e0f0fd8	0.13970888
59	0xbe99f18a	-0.30067092
60	0xbe6e7cff	-0.2328987
61	0xbd2a1b16	-0.041529737
62	0xbd9cd030	-0.07656896
63	0x3e13ab98	0.14420927
64	0xbe80d48a	-0.25162154
65	0xbe1b6803	-0.15176396
66	0xbde6c966	-0.112688825
67	0x3e33d491	0.17561556
68	0xbd9923a2	-0.074774995
69	0x3db3a67b	0.08771988
70	0xbe344b65	-0.17606886
71	0xbe6a4359	-0.22877254
72	0x3e51d6fa	0.20492163
73	0xbe0811df	-0.13288067
74	0xbde504bd	-0.111825444
75	0xbe5c561c	-0.21517223
76	0x3e33b96a	0.17551199
77	0xbd574a79	-0.052561257
78	0x3e8b9e23	0.27269086
79	0x3d55ab26	0.052165173
80	0xbe3add85	-0.18248565
81	0x3e905202	0.28187567
82	0xbda827a6	-0.08210687
83	0xbe85a745	-0.2610418
84	0x3e248412	0.16066006
85	0x3e5fd59e	0.21858832
86	0xbcd5b0a2	-0.026085202
87	0xbd9cc65e	-0.07655023
88	0xbe66f06a	-0.22552648
89	0x3e98dabb	0.29854378
90	0x3dfffc7a	0.12499328
91	0xbe12ec0a	-0.14347854
92	0x3decc307	0.11560636
93	0x3e1bf60d	0.1523058
94	0xbdc8be00	-0.098018646
95	0x3e7f08b7	0.24905668
96	0x3e23d9eb	0.16001098
97	0x3da8abe5	0.08235911
98	0xbe49faa5	-0.1972452

onnx::MatMul_35 f4 [9, 2]
0	0x3ec061f7	0.3757474
1	0x3deb582a	0.11491425
2	0x3ec2e0f4	0.3806225
3	0xbde71e32	-0.11285056
4	0x3e51e5f2	0.20497873
5	0x3d840721	0.06446672
6	0xbe23da4f	-0.16001247
7	0x3dd3e77a	0.10346885
8	0x3ea37350	0.31923914
9	0x3e6f87ca	0.23391643
10	0x3e180513	0.14845686
11	0x3e6b0825	0.22952326
12	0x3e30bd76	0.17259774
13	0x3d6dcd95	0.058057386
14	0xbda0212a	-0.078188255
15	0xbea9c1f7	-0.33155796
16	0x3eb1bb14	0.34713042
17	0xbe5ea09e	-0.21740958
