NeuralNet/model.onnx (onnx, 7602 bytes, 14 tensors)

0.bias f4 [20]
00000000: 8fa6 84be 1c0f f33d 2363 a0be 58e7 653c
00000010: 709c 373e 90fd 9b3d c0ab 8abe c22f 4abe
00000020: 561c cabd 6a6c 663e 4ce4 373e db29 97be
00000030: 01f9 913e bb4b 803e 856d 473d 335e 90be
00000040: 316f 8d3e 984f 2d3d b8e7 dfbd c216 4abd
-0.25908324 0.11868116 -0.31325635 0.014032207 0.1793077 0.076167226 -0.2708416 -0.1974478
-0.09868686 0.22502294 0.17958182 -0.2952412 0.28510287 0.25057778 0.04868843 -0.28196868
0.27623895 0.042312235 -0.10932869 -0.04933811

2.bias f4 [18]
00000000: 875d 003e 5a9f 5fbe dff4 1e3e c42e 82bd
00000010: 79e2 ba3d 29a1 4e3e 76d9 233e a1f3 f7bd
00000020: 0da7 23bd c302 d1bd 27a3 3c3e 189c d0bd
00000030: a6c9 0d3e f093 4e3d b5fe 2bbd 7e2a 543e
00000040: 5f17 31be 9993 053e
0.12535678 -0.21838132 0.15523098 -0.06356576 0.091252275 0.20178665 0.16000924 -0.121070154
-0.039954234 -0.10205605 0.18421613 -0.101860225 0.13846454 0.050434053 -0.041990954 0.20719334
-0.17294072 0.13044585

4.bias f4 [16]
00000000: 55e6 6a3e 400b ba3d afa7 f0bd 62f4 d1bd
00000010: 8fc9 ca3d ff12 62bd 34f9 633e c3cc 993d
00000020: da29 12bc ffd7 953d 43c2 45be 7d2a 30be
00000030: d03c d7bd 3eec 5f3e 59dd 043e 8475 64be
0.22939427 0.09084177 -0.11750733 -0.102516904 0.099017255 -0.055193897 0.22263032 0.07509758
-0.008921111 0.073165886 -0.19312386 -0.17203708 -0.10509646 0.21867463 0.12975062 -0.22310454

6.bias f4 [14]
00000000: 1d2f 21be c25f e03d 4b64 34be 1460 033d
00000010: c5a5 123d 8f39 733e e5e0 d73d 81be da3c
00000020: 8ab3 acbd 33b2 2abe 1bab 6a3d 124d d5bd
00000030: 0405 b63d d2a2 0e3e
-0.15740629 0.10955764 -0.17616384 0.03207405 0.03580262 0.23752426 0.10540942 0.026702167
-0.08432682 -0.1666954 0.057292085 -0.104150906 0.088876754 0.13929299

8.bias f4 [12]
00000000: a791 57be 1917 883d b82e 5fbe f622 843e
00000010: 258f 3dbe b8c3 bdbd fc2b 133d c404 1e3e
00000020: 6143 883e 7f71 9f3d dfde 603e 976b 60be
-0.21051656 0.066450305 -0.21795166 0.25807923 -0.18511637 -0.09265846 0.03593062 0.15431505
0.26613906 0.077853195 0.21960019 -0.21916042

10.bias f4 [10]
00000000: d505 323e 610c 20be 6f2f 65be 6a71 ffbd
00000010: 0d06 50be 4605 253e bac1 d4bd 59a8 5d3c
00000020: 26dd 623e 24d6 4c3e
0.17385037 -0.15629722 -0.22381376 -0.12472804 -0.20314808 0.16115293 -0.10388513 0.013528907
0.22154674 0.20003563

12.bias f4 [4]
00000000: 6ae3 103f bb5d 343f 29c2 71bf 43b3 2abf
0.56597006 0.7045552 -0.9443689 -0.6667978

onnx::MatMul_43 f4 [10, 20]
00000000: 3c26 f13d 1c52 66be 5c0b c03d b2a2 77be
00000010: 7496 34be 1ea6 24be 28fa 42bd 03e4 29be
00000020: a07d d1bc b8ac babd 02c6 3cbe a0da fdbc
00000030: fecb 253e 48e5 56bd ab16 823e 2031 4bbc
00000040: b465 233e e01f 8dbe e515 15be 781d dbbd
00000050: 692c 16be b28e 90bd 8bde 833e be36 443e
00000060: d8fe 2c3d ec06 6dbe fb7e 9a3e d437 edbd
00000070: 100b 20be c4ed 99be 16f0 95be 004f 953a
00000080: 1e8b 753e 2aff f3bd cac6 6a3e c0bb af3d
00000090: 9a94 1f3e e94a 953e 6cc6 b33d 5e3b 28be
000000a0: 0156 11be 7abe e3bd 30e9 11bd c0ac 593c
000000b0: 480b f03d 6036 ba3a 3ad6 5dbe 8027 c2bb
000000c0: 6282 eebd 627a 5fbe d652 8abe c0ca e63b
000000d0: ac21 af3d 6ea4 46be 7118 35be b39f 97be
000000e0: 804c babd 68aa 3dbd 385f 02bd 998e 61be
000000f0: e8f1 253e 0ea5 623e 3dca 863e 472f 923e
00000100: 315e 823e 44ca 7bbe 5006 063d 9b7f a03e
00000110: 5e98 533e 002a cebd a997 9e3e e06c 82bd
00000120: e509 943e 4610 74be edde 00be 76d9 42be
00000130: 693c 19be 7713 0dbe d1a5 a0be 884f 8a3d
00000140: cf16 9cbe 443a 913d 4ff5 db3c 2a7b d03d
00000150: 5e2a 81be 255d bd3d 7dee eb3d 2892 a4bd
00000160: cb59 9c3e bc0e bcbd c5a5 933e b12a 9b3e
00000170: ca68 84be 1b30 8d3e 199f 2fbd 2370 e0bd
00000180: bffa cabd 21ab 88be b85a 8abe d59f 943e
00000190: 9a41 5fbe 288f b93d 6dd2 a13e b509 9a3e
000001a0: a659 69be 4f2a 9a3e ae43 513d 5908 973e
000001b0: 65f7 c23d b42c 2dbe 8faa 8c3e 8f83 983e
000001c0: 1e82 68be 06b9 7d3e 3e52 58bd 088e 223e
000001d0: 72b4 003e e8ae 5bbe 6f3b 75be abf7 043e
000001e0: d5ee 863e 27ce 893d e0ae a23d d5d7 2cbe
000001f0: ddae 8cbc 6fd1 2bbe 2383 553e 93bb 923e
00000200: e1af a1be 8484 35be 5245 663e 2f59 51be
00000210: 8838 513d ce22 483e 23f0 02be 23cf 6fbe
00000220: 4c53 183e 9901 503c d568 1b3e 5a17 71be
00000230: 403c 153c f83c 5b3d 78af 5cbd 62d2 553e
00000240: 3f40 35be 2055 cd3d 7b1b 59be 7e3f 693e
00000250: 9d5b 80be 80a7 4cbe 673a 8d3e e076 3a3c
00000260: 00ec 62bd 4d6e 873e 6b17 07be 1978 9b3e
00000270: 499c 893e f7fa 1fbe ae1c 0f3e 3c2d 18be
00000280: 809f 56bd f69b 763e c676 513e 5090 b63c
00000290: 2bb6 7dbe c80a e43d 6860 143d d8c6 123d
000002a0: a63a 7b3e 2723 06be 22ae 1c3e 482b 3dbd
000002b0: 5290 ebbd 6079 57bd a745 30be aff8 9f3e
000002c0: c6a6 4b3e f9ee 08be de41 263e d283 9cbe
000002d0: 2af2 87be 5ee0 7cbe c6c9 01be 369a 96bd
000002e0: 8c8c ee3d 9200 623e 3930 9abe 60e0 babc
000002f0: c6cb 72be 90b9 2fbe e823 3c3d c0f2 6abe
00000300: 908f 933d e059 a5bd 7a83 f2bd 97d1 16be
00000310: e4e6 20be 011c 893e 75b0 86be d27b 733e
0.11774871 -0.2249226 0.09377167 -0.24183157 -0.17635518 -0.16078994 -0.04760185 -0.16590886
-0.025572598 -0.09114975 -0.18434909 -0.030988038 0.16191098 -0.052464753 0.2540792 -0.012401849
0.15956765 -0.2756338 -0.14559133 -0.1069898 -0.14665379 -0.07058467 0.25755724 0.19161507
0.042235225 -0.23147172 0.30175003 -0.11582914 -0.1562922 -0.30064213 -0.29284734 0.0011391342
0.2397885 -0.11913903 0.22927395 0.08580732 0.15584031 0.29158714 0.0877808 -0.16428897
-0.14192964 -0.11120315 -0.035622776 0.013285816 0.11720902 0.0014206879 -0.21663752 -0.005925119
-0.11645962 -0.21824029 -0.27016324 0.0070432127 0.08551344 -0.19398662 -0.17685105 -0.29614028
-0.090966225 -0.04630509 -0.03182909 -0.22027053 0.16205561 0.22133276 0.2632617 0.28551695
0.25462487 -0.24588877 0.032720864 0.31347355 0.20663592 -0.100666046 0.30975083 -0.063684225
0.289138 -0.23834333 -0.1258504 -0.19028267 -0.14964451 -0.13776956 -0.31376508 0.06753451
-0.30486152 0.070911914 0.02685037 0.10179742 -0.25227636 0.092462815 0.115200974 -0.080356896
0.30537257 -0.09182498 0.2883741 0.30306008 -0.25861198 0.27575764 -0.042876337 -0.109588884
-0.09911107 -0.2669306 -0.27022338 0.29028192 -0.21802369 0.09060508 0.31605855 0.3008553
-0.22788104 0.30110404 0.051089935 0.29498556 0.09519843 -0.16911584 0.27473876 0.2978787
-0.22705886 0.24777612 -0.052812807 0.15874493 0.12568834 -0.2145344 -0.23948453 0.12985103
0.2635409 0.067287736 0.07943511 -0.16879208 -0.017173225 -0.16779111 0.20850806 0.28658733
-0.31579497 -0.17726332 0.22487381 -0.20444177 0.051079303 0.19544527 -0.12786917 -0.2341886
0.14875525 0.012695693 0.15176709 -0.23544064 0.009108603 0.05352494 -0.053878278 0.20881036
-0.17700289 0.10026002 -0.21201889 0.22778127 -0.25069895 -0.19985771 0.2758362 0.011380881
-0.05540085 0.2645134 -0.13192527 0.30365065 0.2687705 -0.15623079 0.13975784 -0.14861006
-0.052398205 0.24082932 0.20455465 0.02228561 -0.24776523 0.11134869 0.036224753 0.035834163
0.24534091 -0.13099347 0.15300801 -0.046183854 -0.11502136 -0.052605987 -0.1721407 0.31244418
0.19887838 -0.13372411 0.16236064 -0.3056932 -0.26551944 -0.24694964 -0.12674627 -0.07353632
0.11647901 0.2207053 -0.30114916 -0.022812068 -0.23710546 -0.1716063 0.04593268 -0.22944164
0.07205117 -0.08073783 -0.118414834 -0.1472839 -0.15713078 0.26779178 -0.263065 0.23777702

onnx::MatMul_44 f4 [20, 18]
00000000: 5aa9 e4bd 94a5 7c3c f261 2f3e e479 09bd
00000010: 147e 5f3e 77bc 293d 2c6d b1bc 7ea2 643e
00000020: c10f 41be 34c6 b9bd 9e22 88bd 150f 53bd
00000030: 7491 943d 4573 cabc 5827 1c3e b8c6 093e
00000040: 387f 283e 5061 8b3d 559e 013e af07 3cbe
00000050: c4dc af3d dd04 b63d 4666 5ebe 71e8 1bbd
00000060: 51f9 c43d 32eb f1bd 57cd c43c 642c 723d
00000070: 429d da3d 4c32 0d3e 9346 ae3d 945c 053e
00000080: 9d8e f0bc 506e 8abd 614a 1abe ead3 fdbc
00000090: 450d 5c3e 9124 263d 2f00 643e 45d1 19bd
000000a0: 74b1 afbc 3d0b 17be b8f9 c53d f25d 50be
000000b0: 8fed 963a c0be 4a3e a054 33be 2118 413e
000000c0: 43ac 28bd 8129 5dbe daf8 66bd 4df6 e13d
000000d0: dd01 b0bd 2907 1dbe df05 2b3e dc9e 34be
000000e0: 216b d5bc 26eb 833c 31a4 f9bd 6caa 27bd
000000f0: aacd b1bd e053 31bc a565 04bd df34 98bd
00000100: b835 003e f994 7f3d 13d1 38be dd2f 463e
00000110: 3481 31be a471 e2bc 81bb 5dbe 6295 ec3d
00000120: d4cb 163e c4d4 cb3d 281b 623d 96da a6bd
00000130: b52e a5bc 389d 2c3e bc7a 053e b71d 41be
00000140: dc83 c83d a010 53bd 4079 d8bc 2879 8f3d
00000150: 30f7 e73d a6af 22be f743 58bc 0c11 e03d
00000160: 16cb aebd f0c4 e43c bf84 ebbd c4ce 43be
00000170: f9b9 4d3e b764 3cbd 393f e3bd 3e4f bf3b
00000180: f191 ddbd 5884 343e 0602 503e 7c4e f0bd
00000190: aed0 cabd 183a 2b3e 37f1 80bd 1b6a 0ebe
000001a0: 6b68 48be 490f 2b3d 2d78 443d e372 25bd
000001b0: 8f9e 393d 585b 183e d22c a2bb fa17 1ebe
000001c0: ab71 1bbb 070e e9bd 1210 0abd bf47 0abb
000001d0: 35ec 073d fd63 103e 9da5 50be 3a41 d5bd
000001e0: d72b 63be 55a3 063e cfe6 44bd 2faf 05be
000001f0: 6fa1 4ebe 30e0 253e 1082 85bd d77c 08be
00000200: 68e2 c13d de41 163e ea85 e53d c419 ca3c
00000210: 7d8c 11bd 691c e73b 0d62 883d 3182 413e
00000220: b592 3d3e ceab 9abd 1caa 29be df0b 1a3e
00000230: 02ab 56be 173a 403d 2dd0 0cbe 0a79 d13d
00000240: 42ae fcbc 01b6 183e 9e34 e23d 201e 4ebe
00000250: 61bf 2cbd c065 4b3e 1503 393e 55ba d43d
00000260: 101c 19bd 1b89 f93d cae6 313e 4883 ec3d
00000270: fa95 2bbe 2e6a 37be ffed f3bd e4bb 263e
00000280: c898 2ebe 9118 a43c 88ab 86bd ab69 113d
00000290: dcd3 f7bd 112c 40be 25a6 f7bd 9c88 593e
000002a0: f8ac 20bd 545b 6dbd dc1b 0ebe 4cb6 d63d
000002b0: 8661 563e ba43 173e f22c b7bd b83f e53d
000002c0: f8de d23d ef4b 60be f128 53be 8061 bb3d
000002d0: 2ac2 ce3d 7bba 183e a639 57be 2069 643e
000002e0: 965c 08bb 60c6 3e3e 445a 4dbd bfc0 49be
000002f0: bb89 b8bd 2f06 63be 049b acbd e58e 42bd
00000300: c6d9 55be 6490 07bc 54fb 2dbe e355 90bd
00000310: b4d0 d3bd 7393 12bd 08d5 fe3d 1053 4e3e
00000320: 88db e2bc 546d 05be 7f0a 47be 5f0f adbd
00000330: 6e44 603e a3a3 c53d 69f7 f43c 4405 06bd
00000340: b5d0 bcbd a2cd a9bc 70e2 2c3e 8a12 9c3d
00000350: 1f5c 1dbd b182 d8bd 2b7e edbc 6c01 59be
00000360: b8da fc3c 7f97 bdbd e6a2 88bd 0e1d 2f3e
00000370: 4000 1f3d 46b0 233e 7406 90bd e44b 0b3e
00000380: 8c4c dc3d 2f2c 0abe ae08 493e 0093 25be
00000390: baf9 38be 6a08 c6bd 4a0e c93c ce67 183e
000003a0: 2e8f 82bd 52e7 17be f80f 7abd a1fa 203e
000003b0: 2b58 a93d 1402 babd 3db9 1cbd 77e1 2a3e
000003c0: 6aa7 61be 3c71 adbd 2cf5 263e 634a 38be
000003d0: 4eb7 debc e8dc 22be 7ab1 77bd 5eca 08be
000003e0: 19f0 ebbd 9d39 20be 1e8f ddbd 4d67 49be
000003f0: 2c07 bdbc 1971 af3b e8c9 503e c1b5 1fbe
-0.11165114 0.015420336 0.17127207 -0.03356351 0.21825439 0.0414395 -0.021658503 0.22327611
-0.18853666 -0.09071007 -0.06647228 -0.051528055 0.072543055 -0.024713168 0.15249383 0.13454711
0.1645478 0.0680567 0.12658055 -0.18362306 0.085870296 0.08887646 -0.21718702 -0.03806347
0.09617866 -0.11812438 0.024023695 0.059124365 0.10674526 0.13788718 0.08509555 0.13023597
-0.029364878 -0.06759322 -0.15067436 -0.030984838 0.21489437 0.040562216 0.22265695 -0.03755309
-0.021446921 -0.14750381 0.09666771 -0.20348337 0.001151489 0.19799328 -0.1751275 0.1885686
-0.041179907 -0.21597864 -0.056389667 0.11033306 -0.085941054 -0.15334763 0.16701458 -0.17638725
-0.02605206 0.016103338 -0.1218952 -0.04093401 -0.086818054 -0.01082322 -0.0323235 -0.07431959
0.12520492 0.06239793 -0.18048505 0.19354196 -0.17334443 -0.027642079 -0.21653558 0.1155193
0.14726192 0.09952691 0.05520168 -0.08147161 -0.020163873 0.16856849 0.130351 -0.18858992
0.09790775 -0.051529527 -0.026425004 0.070055306 0.11326444 -0.15887317 -0.013199798 0.109407514
-0.08534829 0.027925938 -0.11499929 -0.19121844 0.20090474 -0.045994487 -0.11096043 0.005838304
-0.10818852 0.1762861 0.20313272 -0.1173372 -0.09903084 0.1672138 -0.06296008 -0.13907664
-0.19571082 0.041762624 0.04796617 -0.040392768 0.04531723 0.14878595 -0.0049491907 -0.15438834
-0.0023718874 -0.11379629 -0.033706732 -0.0021099893 0.03318425 0.14100643 -0.20375676 -0.104128316
-0.22184692 0.13148244 -0.04807168 -0.13055108 -0.2017877 0.16198802 -0.06518948 -0.13328873
0.09467012 0.14673564 0.11207183 0.02467049 -0.03553437 0.0070529473 0.06659327 0.1889732
0.18512996 -0.075523004 -0.16568798 0.15043591 -0.20963672 0.0469304 -0.13751288 0.102281645
-0.030844811 0.14913179 0.11045192 -0.2012868 -0.0421747 0.19863033 0.18067582 0.103871025
-0.037380278 0.12184354 0.17373195 0.115484774 -0.1675643 -0.17911598 -0.119106285 0.16282612
-0.17050469 0.020031245 -0.06575686 0.035501163 -0.12100956 -0.1876681 -0.120922364 0.21243519
-0.039227456 -0.057948425 -0.13877815 0.10483989 0.2093564 0.1477193 -0.089441195 0.11193794
0.10296434 -0.21903966 -0.20621087 0.09149456 0.100956276 0.14914887 -0.21018085 0.22305727
-0.0020807139 0.18630362 -0.050134912 -0.19702433 -0.09010645 -0.22170328 -0.084280044 -0.047499556
-0.20883855 -0.0082741715 -0.16990405 -0.070476316 -0.10342541 -0.03578515 0.12442976 0.20148873
-0.027692571 -0.13029987 -0.19437598 -0.084501974 0.21901104 0.09650352 0.02990313 -0.032719865
-0.09219495 -0.020727936 0.16883254 0.076207235 -0.03841793 -0.105718024 -0.028990826 -0.21191949
0.030866012 -0.09257411 -0.066716954 0.17100927 0.038818598 0.15985212 -0.07032481 0.13603169
0.10756788 -0.13493417 0.19632217 -0.16169357 -0.18064013 -0.096695736 0.024542946 0.14883348
-0.063749656 -0.14834335 -0.061050385 0.15720607 0.0826877 -0.090824276 -0.038262594 0.1668757
-0.2203652 -0.08468863 0.16304463 -0.17997126 -0.027187016 -0.15904582 -0.06047199 -0.13358447
-0.11520404 -0.15646978 -0.10818313 -0.19668312 -0.023074709 0.0053540585 0.20389521 -0.15596677

onnx::MatMul_45 f4 [18, 16]
00000000: c362 e53d aa23 46be 79dd e0bd 09d3 803d
00000010: 35dc 58bc 03ee 043e a31b 47be 1322 403e
00000020: 2563 06bd 5467 613d 8222 363c d719 153e
00000030: f4be 483e fa3c 283e 663d 4bbe 1660 083e
00000040: 98d2 06be 119d 123e ac87 2cbe c461 51bd
00000050: 2fd0 6b3e fcf1 6cbe a222 0dbe d5e9 3dbd
00000060: 21fd cbbd 1fc2 2a3e 27c3 96bd a702 41be
00000070: f140 203e 3684 6a3e 8ead 753d c6b6 30be
00000080: 86a5 f9bc 050a 52bc 98c4 203e 4039 c83c
00000090: 1b0e f8bd 71f3 163e 84f2 073e 1914 0a3d
000000a0: 4c59 67be f3cf 613e 437a 3f3e fb21 42be
000000b0: 4406 8b3b e27b 123d 5d45 d3bd 9642 193e
000000c0: dc18 d4bd b495 22be 47c8 56be f6b4 f23d
000000d0: 78ba 543c df6d 53be ddc1 413e 278e 3f3e
000000e0: 913e c2bd e628 2c3e 65db 423e e9d2 11be
000000f0: 3ebd 573e 8095 36be 4b63 8b3d 74c4 65be
00000100: b6fd 9b3d 747c 5b3e 8d23 67bb 018a bfbd
00000110: d0e8 373e 9cba 2b3e 2e73 6b3e dcad d5bd
00000120: 2190 4f3a 4fd4 703e b5c8 9d3c f256 d73b
00000130: ebf1 693e 65a3 d63c 8974 6abe 3998 8fbd
00000140: d7a3 21be a5b8 0bbc df0a 683e fad5 9ebd
00000150: 8a90 37be 33cf 0c3d f6f6 a3bd af6c edbb
00000160: 15de d0bd 72f3 19be b3f4 44be ea77 5f3e
00000170: 65a1 6c3d 6be6 363e e0d3 06be 7e58 493e
00000180: 1de1 1a3e 0397 bf3d 4123 5bbe faef d23d
00000190: b650 293e e55d af3c 6538 d0bb 36b2 19be
000001a0: c9ea 6b3e d588 3a3e b997 47bd 6266 633d
000001b0: 6297 2a3c 513a 663e ca6d 83bc 6975 e63d
000001c0: 8730 bdbd 3ad5 2dbe ff2c cc3d 6a27 603e
000001d0: 69db 36be a058 91bc 8f2c b23d fd2b e0bd
000001e0: cc41 11be 155f ecba ed11 e6bd 5777 0cbe
000001f0: 64ff 883d 4382 2d3e 0be0 0b3d 3198 5e3e
00000200: 5aab 053d bcde dbbd 36c4 d4bd 48fe e8bd
00000210: 16e5 0d3e 5ec4 203d 679f d63d 679b 9abd
00000220: 6886 1c3c c4f2 5fbd ab78 453d 99dc afbd
00000230: 4c11 20be bc08 3bbe fa83 ef3c 5682 453e
00000240: 3e52 efbd b01a 60be 7ee0 073c aeaa 44be
00000250: fc80 623e a38f 5e3e b2c3 e83d 14f9 01bc
00000260: 51c2 42be 482d 28be d9ef 663e 5311 d93b
00000270: 14e3 233e 62b3 79bd 4711 623c 444b b3bd
00000280: 21db 69be 871e 40be 7151 49be 751d fc3d
00000290: 519f 01be 756b 77bb 9ad5 3c3e 88ea 07be
000002a0: 96f7 1fbe 1908 633e 4f33 33be 31c9 393c
000002b0: ed5a fbbd d158 583e 880f 273e 9d82 423e
000002c0: b7ec c7bd b0f2 9c3d d85f 77bd f944 ec3b
000002d0: d692 ab3d 784e 9fbc a192 4fbe a6bc b6bd
000002e0: 2841 d03d 0e39 9f3d e81e 80bd c1a5 53be
000002f0: ca7a 513e c21e 103d 4b93 0dbe bf5a 30be
00000300: 1cc9 62be b4f6 04be 9a39 45be 31c4 173e
00000310: 36fc 32be 96c9 0ebe 28b6 25be 4ebd 55bd
00000320: 6f5e 3f3d 4d6f 5c3d 46c1 95bd e768 89bd
00000330: 6e92 16be a7be 0d3e a3d3 0b3d ad97 683d
00000340: 6c2a 063e 1c42 08be 761e 363d 0946 343e
00000350: 1989 43bd 6669 52bd 7922 5dbe b52e 333c
00000360: b9ec 21bd b014 b23d 472b 623e 958d 563e
00000370: a610 09be 85d4 e6bd 50ba d1bd 1587 50be
00000380: d3c2 2e3e 12a8 ff3c c787 0c3e 7d39 9d3d
00000390: 98f0 8dbc 16ff a6bd 8fec 9dbc 8d2a 263e
000003a0: ab61 d4bc 034e 20bd 4be4 5ebe 8ebb 55be
000003b0: 8038 7d3c 0b03 6ebb 4cec de3a d954 b6bd
000003c0: 2a29 cbbd 71ed e9bd ab16 6d3e fba9 1a3e
000003d0: 4c95 4cbe fd84 9d3d 470a 093d 75b4 2dbe
000003e0: 66ea f9bc 01ef 2fbe 5a10 05ba 9f88 19be
000003f0: 6cd4 3cbe 8c37 c8bd c309 593d b199 333e
0.11200478 -0.19349542 -0.109797426 0.06290252 -0.013236095 0.1298142 -0.19444136 0.18762998
-0.032809395 0.055030182 0.011116626 0.14560638 0.19604093 0.1642951 -0.1984764 0.13317904
-0.13166273 0.14317729 -0.1684863 -0.051118627 0.23028634 -0.23139185 -0.13782743 -0.046365578
-0.0996039 0.16675614 -0.07361441 -0.18848668 0.15649773 0.22901997 0.059979968 -0.17257223
-0.030474436 -0.012819772 0.15699995 0.024441361 -0.121120654 0.14741303 0.13276106 0.033710573
-0.22592658 0.22051983 0.18698983 -0.18958275 0.0042426903 0.035762675 -0.10315964 0.14966807
-0.10356304 -0.1587742 -0.20974837 0.11850922 0.012983911 -0.20647381 0.18921609 0.1870657
-0.0948459 0.16812477 0.19029005 -0.14240612 0.21068284 -0.17830467 0.06806048 -0.22438222
0.07616751 0.21434194 -0.0035268993 -0.09352494 0.17959905 0.16770405 0.22993156 -0.10433552
0.00079179 0.2351849 0.019260744 0.006571644 0.2284619 0.02620096 -0.22896017 -0.07011456
-0.15785156 -0.008527909 0.22660397 -0.077556565 -0.17926231 0.034377288 -0.080060884 -0.007245622
-0.10198609 -0.15034273 -0.1923397 0.21823087 0.057771105 0.17861335 -0.13166761 0.19662663
0.15124936 0.09354975 -0.21400167 0.10299678 0.16534695 0.021407077 -0.006354379 -0.15009388
0.23038782 0.1821626 -0.04872868 0.05551756 0.010412069 0.22483183 -0.016043562 0.11252863
-0.092377715 -0.1697587 0.0996952 0.21890035 -0.17857136 -0.017742455 0.08699905 -0.1094589
-0.14185256 -0.0018033708 -0.11233888 -0.137174 0.06689337 0.16944222 0.03414921 0.21737744
0.032634117 -0.107358426 -0.10388987 -0.11376625 0.1385692 0.03924977 0.10479622 -0.07549172
0.009553529 -0.05467488 0.04821078 -0.085869975 -0.15631598 -0.1826505 0.029237736 0.19288
-0.11685608 -0.2188518 0.008293269 -0.19205734 0.22119516 0.2173448 0.11365451 -0.00793292
-0.19019438 -0.16423523 0.22552432 0.0066243797 0.16004592 -0.06096209 0.013798065 -0.0875459
-0.22837497 -0.18761645 -0.19659974 0.12310306 -0.1265843 -0.0037753258 0.18440858 -0.1327306
-0.1562179 0.22171058 -0.17500041 0.011339472 -0.12273202 0.21127631 0.16314518 0.18995138
-0.09761947 0.076634765 -0.060394138 0.0072103706 0.08377616 -0.019446597 -0.20270778 -0.089227006
0.101686776 0.07774554 -0.06255895 -0.20668699 0.20456997 0.035185583 -0.13825719 -0.17222117
-0.2214703 -0.12984735 -0.19260255 0.14820935 -0.17479023 -0.13944086 -0.16182768 -0.05218249
0.04672092 0.053817082 -0.073122546 -0.06709462 -0.14704296 0.1384226 0.03413738 0.056785274
0.1310212 -0.13306469 0.044462644 0.17604841 -0.04773817 -0.051370047 -0.21595182 0.010936429
-0.039532397 0.08695352 0.22086821 0.20952447 -0.13385257 -0.11271004 -0.102406144 -0.2036403
0.17066507 0.031208072 0.1372367 0.07676981 -0.017326638 -0.081541225 -0.019277839 0.1622717
-0.025925478 -0.039136898 -0.21766774 -0.20872328 0.015455365 -0.0036317732 0.0017007678 -0.08902902
-0.09919961 -0.114222415 0.23153178 0.15103905 -0.19978827 0.07691381 0.033457067 -0.1696337
-0.030507278 -0.17181017 -0.0005075984 -0.14993523 -0.18440408 -0.0977622 0.052987825 0.17539097

onnx::MatMul_46 f4 [16, 14]
00000000: fce3 5fbe 13de 1dbe 355c 91bd fefa 443d
00000010: 241b b43c 1a5d e03c 0311 1c3d 5425 e9bd
00000020: 57b9 4bbe 4470 9e3c edaa 06bd 839c 7abd
00000030: 23a8 3b3d 6ae0 02be 691f ed3d d8cb 0e3e
00000040: b02c b1bc 4cda c73c 53e7 25be 18a3 01be
00000050: 3fa1 483e b66c 22be 81c1 713e 3843 91bd
00000060: 2003 92bd 99d3 63be 7c8c 9ebc 3a08 33bc
00000070: ce43 3f3e dbe0 ab3d d112 213e 83d0 f8bd
00000080: a6c6 343e 3373 2f3d 4e64 4c3e b90a 723d
00000090: f56f 7a3c 43c7 cdbd dc29 4abd 4892 9b3c
000000a0: 8165 7bbe 567f 2cbe 58fc ebbd 880f 1c3d
000000b0: 5aaf 6c3d 074f dabb 99ed 2cbe 1ef4 acbd
000000c0: 577a 25be 9db2 313d 8262 773c 4af3 65be
000000d0: 467f 93bd 0203 6a3d 1eb8 04be bfb3 f1bd
000000e0: 39c6 483e 3f4e eb3d 1bfb 5c3e 2311 9f3d
000000f0: 37ba 3fbd 6a73 1dbe 814c 3f3c 7465 4e3e
00000100: b563 34be 6f2f 8d3d 52a8 90bd c2ba 0dbe
00000110: 4e38 7e3e 88e8 113e 6aa5 c73b 36f7 45be
00000120: 6122 3e3e 614a f63c c34d 10be f40f 023e
00000130: 5448 103e a8b7 36be e6cf 493e da96 b33d
00000140: a696 7bbe 8515 153e 2211 473e 79f4 25be
00000150: 03ec 3fbc 39de 533d d21b 7b3d 853b c03c
00000160: 37e4 1d3e d01a 39be 0860 b6bd c339 0ebd
00000170: 1e50 dabd 267d ec3c 75b6 d3bb 70e1 d33c
00000180: 7b6a 613e 460f 14be 8d99 a93d ce56 e4bd
00000190: 1cbb b13d dce9 cdbd 38ab 98bd f73a c6bd
000001a0: 72ba c8bd 349f 1ebd d91d 1a3e 8a11 073d
000001b0: 3f10 05be 3a22 58be dc3d 18bd 626d fabc
000001c0: d6d3 85bd 5f2b 65be 5d03 563e bd33 dfbd
000001d0: e993 87bd 3c65 283e 67d1 40bd 6626 19be
000001e0: 9469 683e 5fe7 6fbe 8ad6 4abe 23b4 b7bd
000001f0: 235d cd3d 6faf 6fbe 3ac0 fe3d 8655 273e
00000200: 1824 80be 3132 893d 0973 55bd a8c4 44bd
00000210: da4e dbbd bfd0 c03c 5b23 24be 545b 6b3e
00000220: bf26 20bd be32 453e fe22 fe3d 068f 223d
00000230: c50f 7cbe 43d7 d43c ed7e 01be 1247 8a3d
00000240: af13 24be 6974 503e c069 a2bd ee1e b33d
00000250: 650c 373d fb9d 503e 94a2 bd3c 6240 383e
00000260: 6a41 4e3e cf6a 3d3e df2e 8cbd b5cb 2e3e
00000270: dda8 97bd 5e13 0f3e 301b 16be ca1e 103e
00000280: 5a56 3ebe 7643 13be 0c3d c93d 8050 4c3d
00000290: 1c3d 2c3e a5c2 75bd edfa 7d3e fe46 5f3e
000002a0: 21de 7abe a084 183e efe2 2abd 49ea f33c
000002b0: 951f 38bd 3492 64bd bd71 703e 8c1e 173e
000002c0: 23bf 26bd 0d2a 4dbe 72e8 2e3e 1a30 f9bc
000002d0: b926 41bd f067 8ebd a62c a93d 371f 7abd
000002e0: c824 353e bf49 713b 6053 0ebe 7520 713e
000002f0: 2a52 44be 2e96 99bd 488d b4bd 2812 5abe
00000300: cefb 553e a52f 94bc f460 183e ffcb 923d
00000310: bcf4 c43d 6434 493d b010 063d e455 fbbd
00000320: 1c1e 9fbd 1497 54be bef2 203d 1e68 223d
00000330: 22df 313e c2ca 783e 6171 46be 763b 51be
00000340: 0920 fdbb 6825 a33d 8629 0d3e bc47 77be
00000350: e031 543c 3ad7 10bd a250 bc3d 6f1b 673e
00000360: 341f 9c3d f3b3 78bd 26db b73d df15 c43d
00000370: 0bfd 9dbc b9c4 74bc 4df7 88bb cd62 dfbd
-0.21864313 -0.15416746 -0.07097665 0.048090927 0.021985598 0.027388144 0.03810216 -0.11384073
-0.1989492 0.019340642 -0.03287785 -0.061184417 0.045814645 -0.1278092 0.11578257 0.13944948
-0.021627754 0.024396084 -0.16201524 -0.12659872 0.1959276 -0.15861782 0.23608972 -0.07092899
-0.07129502 -0.22248687 -0.019354098 -0.010927254 0.18678209 0.08392497 0.15729834 -0.121491455
0.17653903 0.042834472 0.19960138 0.059092257 0.015285482 -0.10047772 -0.049356326 0.01899065
-0.2455044 -0.1684545 -0.1152274 0.03810075 0.057784416 -0.006662253 -0.16887511 -0.08444999
-0.1615995 0.04338323 0.01509917 -0.22456089 -0.0720201 0.057131775 -0.1296086 -0.11801862
0.19606866 0.11489534 0.21580164 0.077669404 -0.046808448 -0.15376058 0.011675955 0.20155889
-0.1761616 0.06893813 -0.070633546 -0.13840774 0.24826166 0.1424886 0.006092717 -0.19332585
0.18567802 0.030064764 -0.14092164 0.12701398 0.14090091 -0.17843497 0.19708213 0.08769007
-0.24569187 0.1455899 0.1944013 -0.1620654 -0.011713984 0.0517256 0.06130583 0.023465881
0.15419088 -0.18076634 -0.08905035 -0.034723055 -0.106598124 0.02886827 -0.0064609596 0.025864333
0.22013275 -0.14458951 0.082812406 -0.11149369 0.086782664 -0.10054371 -0.074545324 -0.096792154
-0.098011866 -0.038726047 0.15050448 0.03297571 -0.12994479 -0.21106806 -0.03716837 -0.030569736
-0.06534545 -0.22379826 0.2089972 -0.1089854 -0.066200085 0.16444868 -0.0470747 -0.14956054
0.22696525 -0.23428105 -0.19808403 -0.08969905 0.1002753 -0.23406766 0.12439008 0.16341218
-0.25027537 0.066990264 -0.05211166 -0.04803911 -0.10708399 0.023537038 -0.16029112 0.22984058
-0.03909945 0.19257638 0.12409018 0.03968718 -0.2461539 0.025981551 -0.12646075 0.06751837
-0.16023134 0.20356907 -0.079303265 0.08746134 0.044689555 0.20372765 0.023148812 0.1799331
0.20142141 0.18497775 -0.068448775 0.17069896 -0.07405255 0.13972232 -0.14658809 0.14074245
-0.18587628 -0.14381203 0.09826097 0.04988146 0.16820186 -0.06000008 0.24802752 0.21804425
-0.24498798 0.14894342 -0.041720327 0.029774802 -0.044951994 -0.055803493 0.23480888 0.14757746
-0.040709626 -0.20035572 0.17080858 -0.030418444 -0.04715607 -0.06953418 0.08260469 -0.061064925
0.17689812 0.0036817638 -0.13898993 0.23547538 -0.19171968 -0.074993476 -0.0881601 -0.21295989
0.20896837 -0.018089125 0.14880735 0.071678154 0.09616992 0.04912223 0.03273076 -0.12272242
-0.07769415 -0.20760757 0.039293997 0.039650075 0.17370275 0.24296096 -0.19379188 -0.20432839
-0.007724766 0.07966119 0.13785371 -0.24148458 0.012951344 -0.035361506 0.09195067 0.22569059
0.07623139 -0.060718488 0.08977346 0.09574484 -0.0192857 -0.01493948 -0.004179871 -0.10907517

onnx::MatMul_47 f4 [14, 12]
00000000: d153 823e e96f 06be 68e5 6cbd 93b3 febd
00000010: 3191 13be 544a 2e3d 6e67 a93c f1e7 5fbd
00000020: f1fc 203e 388e 4b3e 96d7 e9bd f716 eabd
00000030: 26f7 203d c348 97bd 8a7d f53d 5a3a f93d
00000040: fa34 0dbe 2823 9d3d 829a b83c af57 6ebd
00000050: d6a6 91bd 9d92 5b3e b173 513e 36e3 513d
00000060: 30b4 1e3e d73d fdbd f54e 763d 7f42 6ebe
00000070: 7a7f d33d a167 773e 7ddb 483e f387 16be
00000080: c4e1 66be 7f85 623e cf30 113e 8b92 f03d
00000090: 4ae9 aebd 4d17 2dbe 76fa 033e c576 fe3d
000000a0: b309 8a3e 6c67 863e 0bec 18be 5d3c 203e
000000b0: b493 46bd 40b7 b03d 70e9 5dbe 2880 7fbe
000000c0: 8d9f 79be 05d4 933c 6dbf 843b 09a2 1d3e
000000d0: 2b4b 1a3e 1224 59be aa5d bf3d d77b 393e
000000e0: 00bc 223d 8105 a13d 2be8 233e 5aa3 2b3e
000000f0: dc55 6fbe 5875 063e 493b 3bbe 9505 633e
00000100: 8dbf cfbd 5dbf 0c3e 9953 e3bd 37c4 703e
00000110: 7c05 23bd b04f 303e 676f 533d e5ec 54be
00000120: 8988 4cbe 5c3b 1d3d cc4c 933d 24b9 50be
00000130: 25de 64be c894 6fbd 92eb c43d 4e8d 513e
00000140: 36e5 02be 5655 4b3c 9d5b 1dbe c326 2cbe
00000150: c175 833e 25f1 52bd 3ac6 583e 8a00 0bbd
00000160: 6460 183e eb91 6ebd 9ad8 55be 5d47 c33c
00000170: 28a8 573d b636 cfbc c5c5 90bb dec8 c13d
00000180: d8ad d8bd 913d 523e 30ff 783d eab5 0ebd
00000190: d516 3cbd 286f 913d d128 0d3e 01f7 83be
000001a0: 6fdf 69bd 9874 513e 16de 823e cbc3 87be
000001b0: dc7f bdbd acf9 fa3d 91e9 61bd 4c5e 6abe
000001c0: 6384 b4bd 3205 053e b369 6a3e d026 053e
000001d0: e4bf 7d3e da27 ca3d b8c6 d73c d198 d23d
000001e0: 60cd 85be d37e 193e 1950 21bd 8719 c6bd
000001f0: 2545 76bc 01c1 21bc 151f 35be 56ef e33d
00000200: 41da 25be 65f1 05be 3801 9ebd 631d 6bbe
00000210: 002d e9bd 7388 013e 4b9d 2dbe 00ea 43be
00000220: d024 c23d a80b 67be e457 803e f757 26be
00000230: e612 1f3e 0dc5 523e 0d51 5e3e 749a 4bbe
00000240: b36d 083e a4c8 37be 1ce1 623d 1ae5 eb3c
00000250: 2c65 873e d60f ed3d 7711 1bbc a4f0 fc3d
00000260: 98e7 0b3e 14f6 12be 338b fa3d 5516 673d
00000270: 76f6 52be 3dfb 83be a8e5 c23d c4ae 543d
00000280: b625 e4bd 34e2 6e3e ed9f 5cbe 2ab4 0a3d
00000290: 108a 83be 86d9 24bd 6806 2a3e fe25 26be
0.25454572 -0.13128628 -0.057835966 -0.12436595 -0.14410855 0.042551354 0.020679202 -0.054664556
0.1572149 0.19878471 -0.11418073 -0.114301614 0.0392982 -0.07386925 0.11986835 0.12169333
-0.1378974 0.07672721 0.022534613 -0.05818909 -0.071118996 0.21442647 0.20454289 0.051242076
0.15498424 -0.12365311 0.060133893 -0.23267554 0.103270486 0.24160625 0.19614978 -0.14700298
-0.2254706 0.22121237 0.14178775 0.11746701 -0.0854059 -0.1690342 0.12888512 0.12424997
0.26960525 0.2625078 -0.14933793 0.15648027 -0.048480704 0.08628702 -0.2167108 -0.24951231
-0.2437727 0.018045435 0.00405114 0.15393843 0.15067737 -0.21205166 0.09344037 0.18113647
0.039730072 0.07862378 0.16006534 0.16761532 -0.23372597 0.131307 -0.18284334 0.22170098
-0.10143957 0.13744874 -0.11099929 0.2351235 -0.039800152 0.17217898 0.051619913 -0.20793493
-0.19973959 0.038386688 0.07192382 -0.20383126 -0.22350366 -0.0584915 0.09615244 0.2046406
-0.1278275 0.012410482 -0.15366979 -0.16811661 0.25675777 -0.051499505 0.21169367 -0.03393606
0.1488052 -0.058244627 -0.20883408 0.02383774 0.0526506 -0.025294643 -0.004418107 0.094621405
-0.10580033 0.20531298 0.06079024 -0.034841456 -0.04592021 0.071012795 0.13785101 -0.25774387
-0.05709785 0.20454633 0.25560063 -0.26516566 -0.09252903 0.122546524 -0.055154387 -0.22887534
-0.08814313 0.12990263 0.22891884 0.13003087 0.24780232 0.09870882 0.026339874 0.10283054
-0.2613325 0.14989786 -0.039383028 -0.09672838 -0.015031134 -0.009872676 -0.17687638 0.11129634
-0.16196539 -0.13080366 -0.07715076 -0.22960429 -0.11385536 0.12649707 -0.16954534 -0.19132233
0.09479678 -0.2256304 0.25067055 -0.16244493 0.15534553 0.20582981 0.21710606 -0.19883138
0.13323097 -0.17947632 0.055390462 0.028795768 0.26444376 0.11575286 -0.009464613 0.12350586
0.13662565 -0.14351684 0.122335814 0.05641778 -0.2060183 -0.25777617 0.0951646 0.051924482
-0.11140005 0.23328477 -0.21545382 0.033863224 -0.2569127 -0.04024651 0.16604006 -0.1622543

onnx::MatMul_48 f4 [12, 10]
00000000: 2d98 63be d628 663e 4eac 8ebc 7b4a 883e
00000010: 00db 213d 69e0 563e 5498 32bd 06fd 24be
00000020: 66c2 57be 8a7f 69be 65aa 4b3e 636d 81bd
00000030: f977 943e 870c 38be d67b 153d ecc3 07be
00000040: 1d60 743e eefc 0e3e abb9 01bd df0b 07be
00000050: 288a 8d3e 77e4 67be 97f0 343e faca 12be
00000060: ab48 a1bd 1496 c23d 67a5 d9bd 450b 67be
00000070: 620f a23e 517a 50be b5c8 25bd ad51 b33e
00000080: 3607 0fbe 4353 073e 26fd e33d 75a7 2abe
00000090: 6aa4 bb3d 31b5 483e 38a9 293e 1b80 d13d
000000a0: 1fb3 413e 46e2 773e 3592 2fbe 0437 efbd
000000b0: 18d2 e8bd d3f1 033d ffa6 0b3e 7d4c 6dbe
000000c0: ec69 913d 3b77 493e b66d 103d 4899 4a3d
000000d0: 7e0e e0bd 28fa 783e 27a0 f43c bac7 b23e
000000e0: 528e 893e ac34 6f3e a494 503c b31e b03e
000000f0: 9260 8abd 970b 23be 5b61 873e 9517 803e
00000100: 8f9f 72be 9179 833e 7ae3 3c3e cd18 cbbd
00000110: 69e6 63be 7fbc 98bd ba24 02be 8a2d b43d
00000120: cfe5 5dbe 179e 81bc 8e4d 833c ba87 423e
00000130: 0c65 a03e fc60 0ebe 066a 783e b8e8 d33d
00000140: 15da 553e bdae 463d 1409 713e 4954 443e
00000150: 5bec 17be a1b9 8d3d 16ce 693e 9daf 103e
00000160: 1654 c63c 9917 793e 4d11 03be 29ba e53c
00000170: ac54 a13e cd49 e8bd 65dd 313d c7c2 d3bc
00000180: f11a 9b3e 14c3 873e 39fb a23e 13b3 133e
00000190: 403d 373e d7a4 f1bc aff1 d5bd 5d03 183e
000001a0: 1571 49be 71c8 27be 730f e5bd 0b23 e73d
000001b0: 99ab f9bd 5bc2 3d3e d5f8 c3bc cf31 a9bc
000001c0: 253e bd3d 3f9a 59be 9a07 49be 022f 39bd
000001d0: e042 94bc 5a24 94be f665 903c 4d8c f13d
-0.22226019 0.22476515 -0.017416146 0.26619324 0.039515495 0.20984043 -0.043602303 -0.16112146
-0.21070251 -0.22802559 0.19889219 -0.06319692 0.28997782 -0.17973529 0.036495052 -0.13258332
0.2386479 0.13963673 -0.031671207 -0.13188122 0.27644467 -0.22645746 0.17669903 -0.14335242
-0.078751884 0.095012814 -0.10627251 -0.22562893 0.3165236 -0.2035916 -0.040474612 0.3502325
-0.13967595 0.13215356 0.111322686 -0.16665442 0.09162219 0.19600369 0.16568458 0.10229512
0.18915986 0.2420741 -0.17145617 -0.11680415 -0.11368197 0.032213043 0.13637923 -0.23173709
0.07100281 0.19674389 0.03526088 0.049462587 -0.10940264 0.24314177 0.029861523 0.34918004
0.26866394 0.23359936 0.012730751 0.34398422 -0.067567006 -0.1592239 0.26441464 0.25017992
-0.2369368 0.25678685 0.1844615 -0.0991684 -0.22255863 -0.07457828 -0.12709323 0.087977484
-0.21669696 -0.015822453 0.016028192 0.18997088 0.31327093 -0.13904184 0.24259195 0.10347122
0.20883973 0.048506487 0.2353862 0.19172777 -0.14836256 0.069201715 0.22832522 0.14129491
0.024210017 0.24325408 -0.12799568 0.02804287 0.31509912 -0.113422014 0.04342403 -0.025849713
0.30293992 0.2651602 0.31832293 0.1442378 0.17894459 -0.029497547 -0.10446488 0.14845033
-0.19672044 -0.16385056 -0.11184587 0.11285981 -0.12190933 0.18531172 -0.023922363 -0.020653633
0.09240369 -0.21250246 -0.19631806 -0.045210846 -0.018098295 -0.28933984 0.017626744 0.117943384

onnx::MatMul_49 f4 [10, 4]
00000000: 1070 d83e c322 1c3f 935b 39be 1101 f4be
00000010: 6084 f13e b30c e73e afa8 9dbe 7a04 cabd
00000020: 7f15 6e3e 257e 493d 00a0 adbe 0ace ebbe
00000030: d2eb 0d3e 913f 023d f23c e6be fd52 01bf
00000040: 4c9f b43d 4596 61bd 49bb c7be a292 8bbe
00000050: 9254 df3e 9b99 993e d6bb babe 48ad dabe
00000060: bd4b 7a3e 85a7 b93e 938a 0fbe d38f fdbe
00000070: 8add 073e 18da 9a3e 3bdc c9bd 0568 163b
00000080: 3c88 f93e b8ca 2a3f 55bf b0bd 9623 53be
00000090: c098 0b3f 41ab 403e 143d c6be ad77 a2be
0.42272997 0.6099054 -0.18101339 -0.47657064 0.47171307 0.45126876 -0.30792758 -0.09864135
0.23250388 0.049192566 -0.33911133 -0.46055633 0.1385949 0.031798903 -0.44968373 -0.50517255
0.08819446 -0.05507495 -0.39010075 -0.2726031 0.4361921 0.30000004 -0.36471432 -0.42710328
0.24442954 0.3626062 -0.14017706 -0.49523792 0.13268104 0.30244517 -0.09856459 0.0022950184
0.4873675 0.66715574 -0.08630244 -0.20619044 0.54529953 0.18815328 -0.38718474 -0.3173193
