NeuralNet/model.pt (torch, 3543 bytes, 6 tensors)

0.weight f4 [15, 7]
0	0xbe917543	-0.28409776
1	0x3d5325e5	0.05154981
2	0x3e8cf433	0.2753006
3	0xbe8165ea	-0.25273067
4	0xbe1fa17a	-0.15588942
5	0x3e898a05	0.26863113
6	0x3e2df6f6	0.1698874
7	0xbdf75b64	-0.12077978
8	0x3e236cfd	0.15959544
9	0xbe07dfa3	-0.13268904
10	0x3cfb3e96	0.030669492
11	0x3d7b0c0a	0.06129078
12	0xbe63143c	-0.22175688
13	0xbe9b69ce	-0.3035416
14	0x3e6c1f8e	0.23058912
15	0x3df5efe1	0.12008644
16	0x3dfce4d8	0.12348336
17	0xbe2c4bd4	-0.16825801
18	0xbe744f17	-0.23858295
19	0x3afe1700	0.0019385517
20	0xbe166e22	-0.1469045
21	0xbe875d1d	-0.26438227
22	0xbc9be3b0	-0.019029468
23	0xbe9a0647	-0.30082914
24	0xbcd23d5b	-0.025664022
25	0xbe89df8b	-0.26928362
26	0xbe209449	-0.15681566
27	0x3d29f9b8	0.041497916
28	0xbe1b3934	-0.1515854
29	0xbe1a9292	-0.15094975
30	0xbe2c1170	-0.16803527
31	0xbe8de5a4	-0.27714264
32	0xbe817d4d	-0.2529091
33	0xbe464b80	-0.19364738
34	0xbe84da20	-0.25947666
35	0x3e100a71	0.14066483
36	0xbe7bdb0e	-0.24595281
37	0x3e2ff2be	0.17182443
38	0x3e19ac38	0.15007102
39	0x3d95a6e1	0.0730722
40	0x3eaa4f9d	0.33263865
41	0x3e7d2f26	0.24725017
42	0x3cd76cd7	0.026297016
43	0x3ea8b06c	0.329471
44	0x3eb24f12	0.3482595
45	0xbeadda33	-0.33955535
46	0xbe532655	-0.20620091
47	0xbeb8cc82	-0.36093527
48	0x3ea469a2	0.3211184
49	0xbeb866fa	-0.36016065
50	0xbe71d9d3	-0.2361825
51	0xbeafdd1a	-0.34348375
52	0x3e576719	0.21035422
53	0xbe90d262	-0.2828551
54	0xbdd458f4	-0.10368529
55	0x3e88332b	0.26601538
56	0x3e9b3744	0.30315602
57	0x3d8e9bfc	0.069633454
58	0xbd88088a	-0.06642254
59	0x3e243c60	0.16038656
60	0x3ead93a0	0.3390169
61	0x3e8999e5	0.26875225
62	0xbe805c37	-0.25070354
63	0x3eb41f5a	0.3518017
64	0x3eb6ad71	0.356792
65	0xbe3e1877	-0.1856402
66	0x3e7ff3e4	0.2499538
67	0x3e59a006	0.2125245
68	0x3e0a2dc9	0.13494028
69	0x3bfe5d1b	0.007762564
70	0xbe07cc87	-0.13261615
71	0xbea282df	-0.31740472
72	0xbc2b77a7	-0.010465539
73	0x3d7fdd66	0.062467
74	0x3e514b04	0.20438772
75	0xbe57737a	-0.21040145
76	0x3e479659	0.19490947
77	0x3e8f283f	0.27960393
78	0x3e16945f	0.14705037
79	0x3dc461a8	0.09588939
80	0x3d6aedb6	0.057355605
81	0x3e8e77cc	0.27825773
82	0x3e7b6a1a	0.24552193
83	0x3e481357	0.19538628
84	0x3eb22965	0.34797207
85	0xbe9b0e0c	-0.30284154
86	0xbe1abefe	-0.1511192
87	0x3e8eb708	0.27874017
88	0x3d2ab7d6	0.041679226
89	0xbeb729d1	-0.3577409
90	0x3e3172fc	0.1732902
91	0xbe3647c2	-0.17800811
92	0x3e98fbdf	0.29879662
93	0x3cdc8ba2	0.02692205
94	0x3e8abc04	0.2709657
95	0xbd2ac412	-0.041690893
96	0x3d8f154c	0.06986484
97	0x3d1cde7b	0.03829811
98	0xbd93457e	-0.07190989
99	0xbe80e73f	-0.25176427
100	0xbe9fff82	-0.31249624
101	0x3e63e614	0.22255737
102	0xbe02922f	-0.12751077
103	0xbea622ab	-0.32448325
104	0xbe641dd8	-0.2227701

0.bias f4 [15]
0	0xbe743d22	-0.23851445
1	0x3eae939b	0.3409699
2	0xbe5a4662	-0.21315911
3	0x3eb6e4d4	0.35721457
4	0x3dea524f	0.1144148
5	0x3e4c9f4f	0.19982646
6	0xbe04f281	-0.12983133
7	0xbd2846e6	-0.04108324
8	0xbe9d78f4	-0.30756342
9	0x3d563cd1	0.052304093
10	0x3d178bf4	0.036998704
11	0x3db561e7	0.08856564
12	0x3d91ad04	0.07113078
13	0x3e2f6753	0.17129259
14	0x3e2d31df	0.16913556

2.weight f4 [15, 15]
0	0xbe6a1da7	-0.22862874
1	0x3d220b62	0.039561637
2	0xbcbbd329	-0.022927837
3	0xbd43def1	-0.047820035
4	0x3e229ca5	0.15880068
5	0x3e53c325	0.2067991
6	0x3e574f42	0.21026328
7	0xbca12fbd	-0.019676084
8	0xbdf0ea41	-0.117634304
9	0xbe62c0b9	-0.2214383
10	0x3d88b2d5	0.066747345
11	0x3e5b4986	0.21414766
12	0xbe2efdcb	-0.17089002
13	0x3e16da94	0.14731818
14	0x3e24bff1	0.16088845
15	0x3d98fee9	0.07470495
16	0x3d04fdba	0.032468535
17	0xbda1dd3f	-0.079035275
18	0x3e02c54d	0.12770577
19	0x3cd4063d	0.02588188
20	0xbdb1a7bb	-0.0867457
21	0x3e4784ff	0.19484328
22	0xbe51decf	-0.20495151
23	0xbe8495e4	-0.25895607
24	0xbe409a4c	-0.1880886
25	0x3c989738	0.018626794
26	0xbd42e0a9	-0.047577534
27	0xbe2ca997	-0.16861568
28	0x3c9e8e0a	0.019354839
29	0xbd85a2de	-0.06525205
30	0xbe77f5be	-0.24214837
31	0xbd710dc2	-0.05885101
32	0xbe42146b	-0.18953101
33	0xbe1428a8	-0.14468634
34	0xbc118970	-0.008882865
35	0xbdb14ba0	-0.086570024
36	0x3e3d54e2	0.18489411
37	0xbe825c43	-0.25461015
38	0x3df39bc1	0.11894942
39	0x3db3a1c0	0.08771086
40	0x3e7aa2f2	0.24476221
41	0xbde88c68	-0.11354905
42	0xbe7eb67e	-0.24874303
43	0x3ce81cef	0.02833411
44	0xbe50855c	-0.20363373
45	0xbe3afee2	-0.18261293
46	0x3c94bfac	0.018157803
47	0x3e0b3b30	0.13596797
48	0xbe2c7686	-0.16842088
49	0xbd35a18d	-0.04434352
50	0x3e14bec3	0.14525895
51	0x3e155788	0.14584172
52	0xbd8362ae	-0.06415306
53	0x3d199603	0.037496578
54	0xbd671ffb	-0.056426983
55	0x3e7ee87c	0.24893373
56	0x3ddef482	0.1088648
57	0xbe60ce4e	-0.21953699
58	0xbe29d754	-0.16586047
59	0xbd18f2bb	-0.03734086
60	0x3e012d81	0.12615015
61	0xbe089f17	-0.13341938
62	0xbccf6353	-0.025315916
63	0xbe83ed49	-0.25766972
64	0x3e71b288	0.2360326
65	0xbdb7bf22	-0.089720026
66	0x3e4fc665	0.20290525
67	0x3bc39f7b	0.0059699393
68	0xbc35ef76	-0.011104455
69	0xbe2dba00	-0.16965485
70	0x3dba4760	0.09095645
71	0xbdf9af33	-0.1219162
72	0x3dd1d6bf	0.10246038
73	0x3d95e0df	0.073182814
74	0x3e0164d7	0.12636124
75	0x3b863862	0.004096077
76	0x3d2fe5d8	0.042943805
77	0x3e5bd8f7	0.21469484
78	0x3cb0d9bd	0.0215882
79	0x3dd7ce24	0.10537365
80	0x3e415451	0.1887982
81	0x3e5c2b44	0.2150088
82	0xbdc3cf1f	-0.095609896
83	0x3e51e507	0.20497523
84	0x3e62db07	0.22153865
85	0xbe1b36fd	-0.15157695
86	0xbdf952a4	-0.121739656
87	0xbe36c98b	-0.1785032
88	0x3e269782	0.16268733
89	0x3e2c20d1	0.16809393
90	0xbe3f6a09	-0.18692793
91	0x3e6afa29	0.22946991
92	0xbe6dc62c	-0.23220128
93	0x3dfd8c60	0.1238029
94	0x3e7170d8	0.23578203
95	0x3e2561f9	0.16150655
96	0x3d9db997	0.07701414
97	0xbd9553f8	-0.072914064
98	0xbe7044d4	-0.23463756
99	0xbdde9454	-0.10868135
100	0x3e195750	0.14974713
101	0xbdee74d9	-0.11643381
102	0xbd5ca206	-0.053865455
103	0x3da119d8	0.078662574
104	0x3e5e4f13	0.21709852
105	0x3d71f680	0.05907297
106	0x3e4caeba	0.19988528
107	0xbcada95f	-0.021198926
108	0xbe787ffe	-0.24267575
109	0x3db153be	0.08658551
110	0x3deaf198	0.114718616
111	0xbdba2263	-0.0908859
112	0xba9ce3b0	-0.0011969712
113	0xbe09c8fc	-0.13455576
114	0xbe4a2fc7	-0.19744788
115	0xbe1e4db0	-0.15459323
116	0xbe8216f9	-0.25408152
117	0x3e70d6b1	0.23519398
118	0x3ddbfb97	0.10741346
119	0xbe6378a7	-0.22213994
120	0xbde0b5d0	-0.10972178
121	0xbd2f325f	-0.042772647
122	0xbd446d18	-0.047955602
123	0xbdc15615	-0.09440247
124	0xbe242873	-0.16031055
125	0x3e52577e	0.20541188
126	0x3dabe8d8	0.08394021
127	0x3cd34b11	0.02579263
128	0x3e2691eb	0.16266601
129	0xbe55fb71	-0.20896699
130	0xbe2978c5	-0.16549976
131	0x3d8a7286	0.06760125
132	0xbe1b7e3b	-0.15184872
133	0x3e82664f	0.2546868
134	0xbda5a734	-0.08088532
135	0xbc8af07c	-0.016960375
136	0x3e234eda	0.15948048
137	0x3c75fd63	0.015014025
138	0x3e159f6b	0.14611594
139	0xbe4e71c3	-0.20160584
140	0x3d11db87	0.03560975
141	0xbde88cf0	-0.11355007
142	0xbc0a5f20	-0.008445531
143	0x3deb9b94	0.115042835
144	0xbd5963af	-0.05307358
145	0xbd918fa3	-0.07107475
146	0xbe34594c	-0.17612189
147	0x3d5b1534	0.053487018
148	0xbe3a5ddb	-0.18199866
149	0x3e2a44f3	0.16627865
150	0x3e1723c0	0.14759731
151	0x3e34e26f	0.17664503
152	0xbe6c4ac2	-0.23075393
153	0x3bd6b01a	0.0065517547
154	0x3e093b2d	0.1340148
155	0xbdd55470	-0.10416496
156	0xbdfac66c	-0.12244877
157	0x3e7c7a3a	0.24656
158	0x3e71e8d8	0.23623979
159	0xbe194ce9	-0.14970745
160	0x3e0d8faf	0.13824342
161	0x3e0229fc	0.12711328
162	0xbe33cbc5	-0.175582
163	0x3af3e699	0.0018608152
164	0xbe06b8bf	-0.13156413
165	0xbd5da1fd	-0.054109562
166	0x3e6e6e35	0.23284228
167	0x3daba128	0.083803475
168	0xbde7e09f	-0.1132214
169	0xbe7f1789	-0.24911322
170	0xbd27d6b7	-0.040976252
171	0xbd6c229f	-0.057650205
172	0xbe073f85	-0.13207825
173	0x3c6a8122	0.014313014
174	0xbd9079db	-0.07054492
175	0x3df4120b	0.11917504
176	0xbe8baa41	-0.2727833
177	0xbe752911	-0.23941447
178	0xbd90449c	-0.07044336
179	0xbd95c345	-0.07312635
180	0xbc304f0c	-0.010761034
181	0xbe1caffb	-0.15301506
182	0xbe423d15	-0.18968613
183	0xbd7ef317	-0.062243547
184	0xbde1aad0	-0.11018908
185	0x3df890ce	0.12136994
186	0xbe3a75b5	-0.18208964
187	0xbdba02d9	-0.090825744
188	0x3daa3cb7	0.08312362
189	0xbe48fde2	-0.19628099
190	0x3dc8f853	0.09812989
191	0xbdb56c60	-0.088585615
192	0x3e7363c5	0.23768528
193	0x3db9ea5b	0.09077903
194	0xbe28468c	-0.16433161
195	0xbd381451	-0.04494125
196	0x3e59019c	0.2119202
197	0x3dfc6c52	0.12325348
198	0xbcbcc7d6	-0.023044508
199	0x3e3b8782	0.18313411
200	0xbe218431	-0.15773083
201	0x3e7f5915	0.24936326
202	0xbe119f51	-0.1422093
203	0x3d88529b	0.06656381
204	0x3e314996	0.17313227
205	0xbdcd76b9	-0.1003241
206	0x3ce1f7ee	0.027584042
207	0x3e4f94b1	0.20271565
208	0xbe79e856	-0.24405035
209	0xbd2a807a	-0.04162643
210	0x3c92c587	0.017916454
211	0xbd557e22	-0.052122243
212	0x3d7145c2	0.058904417
213	0x3e65d538	0.22444618
214	0xbdeaa5db	-0.11457416
215	0x3bfd96d4	0.0077389274
216	0xbe3b2ffe	-0.18280026
217	0x3dabd53d	0.08390281
218	0x3da37888	0.07981974
219	0x3e19b442	0.15010169
220	0xbe0240fd	-0.12720104
221	0x3e344f7a	0.17608443
222	0x3e45fe56	0.19335303
223	0xbd72b390	-0.059253275
224	0x3d45da4f	0.0483039

2.bias f4 [15]
0	0x3ca81b0b	0.020520708
1	0x3e799758	0.2437414
2	0x3e460b04	0.1934014
3	0xbe4e0085	-0.20117386
4	0xbe83cb56	-0.2574107
5	0xbe71aa2f	-0.23600076
6	0x3e19fe5b	0.15038435
7	0xbe02c426	-0.12770137
8	0xbe173c9a	-0.14769211
9	0x3e182ea5	0.14861543
10	0x3d968053	0.07348695
11	0x3e320e94	0.17388374
12	0x3e5beaef	0.21476339
13	0x3e06dcb7	0.13170134
14	0xbe6ec8e4	-0.23318821

4.weight f4 [2, 15]
0	0x3d6e0851	0.0581134
1	0xbdf8c2fc	-0.12146565
2	0x3e298093	0.16552953
3	0x3e9b4825	0.3032848
4	0xbd2b157c	-0.041768536
5	0x3dc8d726	0.09806661
6	0xbc5f2df8	-0.0136218
7	0xbcd823a0	-0.026384175
8	0x3e95eb37	0.29281017
9	0x3ebc59fa	0.36787397
10	0xbce724f5	-0.028215865
11	0xbdfb6989	-0.122759886
12	0x3e5bd909	0.21469511
13	0x3deb05d0	0.11475718
14	0x3e88684a	0.26642066
15	0xbdad0467	-0.08448105
16	0xbd04dcc6	-0.03243711
17	0xbe875c8c	-0.26437795
18	0x3d9f3b2e	0.077749595
19	0xbe74e9d9	-0.23917331
20	0xbd161396	-0.036639772
21	0x3e171401	0.14753725
22	0x3e04b907	0.12961207
23	0x3e53d31d	0.20686002
24	0xbe4ce4d7	-0.2000917
25	0x3dabfcd2	0.08397831
26	0x3e00b4e4	0.12569004
27	0x3e0d4ccc	0.13798827
28	0x3cb88338	0.022523507
29	0xbe907e51	-0.28221372

4.bias f4 [2]
0	0x3e808122	0.2509852
1	0x3c5bcd7a	0.013415689
