NeuralNet/model.onnx (onnx, 4768 bytes, 10 tensors)

0.bias f4 [20]
00000000: 8359 0bbe 289b 20be 826e a43c 79a3 41be
00000010: 1741 35be 09e1 2ebb 2f9b 103e 06d6 18be
00000020: c4f2 ee3d 24e2 e73c e3f4 11bd de81 9dbe
00000030: 5727 9abd 3a57 f3bd dc68 9abe 2503 8d3e
00000040: a016 f33d 3aeb 0f3e af63 06be 3be3 b9bd
-0.13608365 -0.15684187 0.020072225 -0.18910016 -0.17700611 -0.0026684424 0.14121698 -0.14925393
0.116673976 0.028306074 -0.035633933 -0.30763143 -0.07527035 -0.118818715 -0.30158126 0.27541462
0.1186955 0.14054576 -0.13123964 -0.09076544

2.bias f4 [16]
00000000: 856f b13d baa5 803d f395 1f3e d832 b5bd
00000010: 4f46 bbbd edb6 d3bd 2d6e 453e 7932 2bbe
00000020: d61e 7dbd 4f34 12bc d49c 9c3c b3d4 49bd
00000030: cba3 1a3e 2255 6f3d b87a 03be 5353 89bd
0.08663849 0.0628161 0.15584545 -0.08847588 -0.0914427 -0.10337625 0.1928031 -0.16718473
-0.061796986 -0.008923604 0.01911775 -0.04927511 0.15101545 0.0584308 -0.12839782 -0.06705346

4.bias f4 [12]
00000000: 1372 33be 136e 113e a289 43bd f32b 683e
00000010: 31b1 27bd a17c b73d 3a87 523e 5972 20be
00000020: 304d 2d3b 1aeb c23d 5f70 f6bc 6a76 2a3e
-0.17523985 0.14202146 -0.04773868 0.22673015 -0.040940467 0.08959318 0.20559397 -0.1566862
0.0026443712 0.09517498 -0.03008288 0.16646734

6.bias f4 [8]
00000000: d936 7e3e 7c09 08be f86e 733e 325f 703e
00000010: 2625 823e 57e8 7d3c 8dc1 c73d 7c2c d9bd
0.2482561 -0.13284868 0.237728 0.23473814 0.25418967 0.015497289 0.09753714 -0.10604188

8.bias f4 [4]
00000000: 9195 d83c 889e 2ebe f7a3 8e3d bb5d 14bf
0.026438506 -0.17052662 0.069648676 -0.5795552

onnx::MatMul_31 f4 [10, 20]
00000000: 6ee8 56be 3d5d 20bb 0551 6f3e 98bc 87be
00000010: 0713 9e3e f3f7 8b3e 500c 293e 773f 70bb
00000020: a042 223e 0688 14bc a0d5 9c3d 0ce3 84bd
00000030: a2bc ccbc 0c84 b73c ed5f 43be efbd 8b3e
00000040: b9e3 6cbe 875d 853e 9b7f c03d 9c83 82be
00000050: 18e9 973d c0a4 7ebe 30f3 893a 3214 633e
00000060: 9ca9 833d 461c 95be 4e8f 62be e0b5 84be
00000070: 50e4 993d 70c9 21be 02a0 4c3e 76ba 7d3e
00000080: b806 74bc f77f 81be e0b0 9e3d 0c17 b73d
00000090: 78ef 463c 98e0 c3bd 0b34 803e 3548 76be
000000a0: dddb e5bd 2a0b 53be 9e62 1b3d 90a1 b6bd
000000b0: 8d8d 7e3e 65f1 a53d 7e56 103e e871 98be
000000c0: 181b 05be cf8d cdbb e8ab eebb b946 cabc
000000d0: 326a 5d3e f4f9 033e d2ca 0d3e 0d93 5cbe
000000e0: c68a 3abe a4f1 60bd 0fee c3bd 01fc 0cbe
000000f0: 580b 113d 4dd4 40be f61d d53d 018c 8d3e
00000100: 553e f8bc e06d a23d 2416 2f3e ef1d 9e3e
00000110: 3224 4fbe 3632 913d e28f 44be 78ba 62be
00000120: 3aae 783e 8ce7 0d3e bb94 0dbe 90b6 a2bd
00000130: caf4 98be 32b3 1d3e d156 95be 1ffb 803e
00000140: 4277 68be 7741 543d 1a17 23be 6f65 6a3e
00000150: 1079 59be 6c80 1d3e 4204 75be dd13 773e
00000160: ee48 11bd d6cc e73a 8860 59be 65cb 9f3e
00000170: 94ec 3cbe 3574 3cbc fc0e 453e 80f5 8abe
00000180: 6ea3 0abe c21b 53bc ac50 ea3c b3f1 97be
00000190: adf8 91be d1b6 cbbd 3acb fdbd b9b2 8e3e
000001a0: d169 2f3e d365 0f3e 4eb1 9e3c 016b 91be
000001b0: 8e30 ffbc 678b 3c3e 9ea5 10bd 4d23 903e
000001c0: 4692 6dbe f36a d0bc 2f8d 473e cb4a 803c
000001d0: 38ea 8bbd 96df 363e 24ea 0c3d d0b3 b53c
000001e0: d723 8f3e 75c8 663e e7ef 98be 457e e83d
000001f0: cd99 6d3e c224 2abe e0be 3f3e a1d2 46be
00000200: 107a 99be a033 36be 5ffa 513e 8178 4abe
00000210: f3f7 013e 2400 10be e4e3 0e3d 44df 913e
00000220: 2bea a8bd 9358 0fbe 7db9 02be 4280 7abe
00000230: 8f3c 1cbe c4ba 4c3d a828 aa3d f2a7 e9bd
00000240: d7a1 873e 48dc a0be e65a 283e a4ca aa3d
00000250: 348f 9a3d 361a dcbd cd18 843e 079a 60bb
00000260: c357 9dbe 1675 1bbe c0d9 ad3d d718 9b3e
00000270: 3356 813e 2c66 ce3d ef62 5abe a256 643e
00000280: af47 b139 7a7b 0bbe 489b 50bd 88fc a5bd
00000290: a78a 2abe 3a72 44be f6d6 663e 6832 4fbe
000002a0: 3fe5 f53d 94c8 e13d 4e1e babd dfc2 3abe
000002b0: 12a9 a0be 53a3 903e 5adf 2abd 328a 78be
000002c0: 2f12 8c3e b3d4 9dbe 4671 673e ba47 383e
000002d0: 92c4 443e 6911 483d b296 723e b031 f2bc
000002e0: d514 14be cea2 d13d 728a 8a3d c254 943d
000002f0: 8659 ad3d 4210 f4bd 1a07 0ebe ead8 49be
00000300: fc97 143e 9feb 023e 50c3 9fbe 313f 813e
00000310: fefb e53d 94ca 42be 2603 4bbe 0022 33bb
-0.20987102 -0.0024469637 0.2337075 -0.26511073 0.30873892 0.27337608 0.16508603 -0.0036658922
0.15845728 -0.009065634 0.07657933 -0.06488618 -0.02499229 0.022401832 -0.19079562 0.27293345
-0.23133744 0.26047918 0.09399339 -0.25491035 0.07417506 -0.24867535 0.0010524746 0.22175673
0.06428835 -0.29123133 -0.22124979 -0.2592001 0.0751425 -0.15799499 0.19982913 0.2477816
-0.01489418 -0.25292942 0.0774858 0.08939943 0.012142055 -0.09564322 0.25039706 -0.24050982
-0.11223576 -0.20609728 0.037935846 -0.08917534 0.24858685 0.08102683 0.14095494 -0.29774404
-0.12998617 -0.0062730084 -0.0072836764 -0.024691926 0.21622542 0.12888318 0.13846901 -0.2154047
-0.18217 -0.054917946 -0.095668904 -0.13768007 0.03541121 -0.18830986 0.10406105 0.27645877
-0.03030316 0.07931113 0.1709829 0.30882213 -0.20228651 0.07089655 -0.19195512 -0.22141445
0.24285212 0.1385786 -0.13826267 -0.07944977 -0.2987426 0.15400389 -0.29167798 0.2519159
-0.22701743 0.051820245 -0.15926781 0.22890256 -0.21237588 0.1538102 -0.23927405 0.24128671
-0.03546994 0.0017684947 -0.2122823 0.31209865 -0.18449622 -0.011502315 0.19243997 -0.27140427
-0.13538906 -0.012885036 0.02860292 -0.2967659 -0.28510037 -0.09946979 -0.12392278 0.2787073
0.1713021 0.14003687 0.019371655 -0.2840195 -0.031151082 0.18412553 -0.035314195 0.28151932
-0.2320033 -0.025441622 0.19487451 0.015660664 -0.06831783 0.17858729 0.03440298 0.022180468
0.2795703 0.22537406 -0.2987053 0.11352209 0.23203202 -0.16615584 0.18725157 -0.19416286
-0.2997594 -0.17793131 0.20505665 -0.19772531 0.12692241 -0.14062554 0.034885302 0.2849065
-0.08247789 -0.13998632 -0.1276607 -0.24462989 -0.15257476 0.0499828 0.08308536 -0.11408986
0.26490662 -0.3141806 0.16440925 0.08339432 0.07546845 -0.10747187 0.25800171 -0.0034271495
-0.3073102 -0.15181383 0.08488798 0.3029239 0.25261077 0.100780815 -0.21326803 0.22298673
0.0003381348 -0.13621321 -0.050929338 -0.08104807 -0.16654454 -0.19184199 0.22542939 -0.20234072
0.12006616 0.11024585 -0.090878114 -0.182384 -0.3137899 0.28249606 -0.04171691 -0.24271467
0.27357623 -0.3082634 0.22601804 0.17996112 0.1921561 0.04884473 0.23690298 -0.029564708
-0.14461072 0.10236131 0.067646876 0.07242729 0.08464341 -0.119171634 -0.13869897 -0.19711652
0.14511102 0.12785195 -0.312037 0.25243524 0.11229704 -0.1902259 -0.1982542 -0.0027333498

onnx::MatMul_32 f4 [20, 16]
00000000: a942 8b3d 6ead 35be e95e 083b 0fb5 0ebd
00000010: 2276 583e 6c7b 04be 176a 563e dce7 43bd
00000020: 97df 2e3e f764 52be 3135 a9bd 90cf fe3c
00000030: 2db5 42bd 4f1f 423e 8e4e 01be c74a 29be
00000040: 82ff 823d ae85 613e 516f 51be 27da 5abe
00000050: 21f9 4bbe 24dd f23c a9d6 773d 553c 8cbd
00000060: 5f0d 5b3e 1ab0 0f3e e93c 51be 210e b33d
00000070: fa2c 1c3e c431 763d 6fe2 1d3e 3262 5fbe
00000080: 82c0 623e dc58 203e fcc3 483e 7f80 853d
00000090: 497d 04bd b1ae 113d 6846 c73d 3571 5b3e
000000a0: 5f2f 43be 56e1 2e3e 4307 04be 329f 25be
000000b0: 0501 18be 086c 91bd 4c00 243e 31ba 02be
000000c0: f658 1c3e 28b2 01be e8c1 c8bd 7fa5 a5bd
000000d0: 7164 21be 31de 83bc 4f20 de3c 234a 093d
000000e0: 48b0 2ebe 4bfd bcbd da40 e33d df66 673b
000000f0: 519f 00be bb73 5b3d 5cc3 6ebc d899 9bbd
00000100: 74c2 493d a25b 8dbd 9bc5 d6bc 35e9 62be
00000110: 0164 1dbe 358d d63d 1480 7b3c e1c3 913b
00000120: 6d43 593e e7c2 06be 1d8f 183e ef43 33be
00000130: 81a8 aebd 8208 643e 7cc5 a63d af72 bfbb
00000140: 304b 893d 1ea8 3cbe c80f 46be 03b8 02bd
00000150: 6926 e0bd 231e ffbd afd9 d13d fd55 0c3c
00000160: be6c 2f3e 3c97 40bd ee56 543e 9b2e 573e
00000170: 901d b6bb f1cd 12be acc6 553e 4379 123e
00000180: 5fbb 613e 584b 2abe c3f5 0abe 2182 a53b
00000190: c8ec 453e 3a50 f83c 272d 57bb 7fc0 cbbc
000001a0: 1f4f 7cbd 0911 11bd 2292 b9bd 9f3e 333d
000001b0: 6bb7 543e 4f2c aabd 42c1 96bd 5d93 5ebd
000001c0: e43a 643e ab9b eabc 8e05 d6bd 70d9 fd3d
000001d0: b429 f73d 082a c1bd e8ae 1e3e ef80 13be
000001e0: 373c 43be 0ac3 e6bd a636 cc3c 5b26 033d
000001f0: aeb5 203c 5303 cd3c dc21 5abe f5fa c5bd
00000200: ad85 93bd 9c0e 35bd 4cb7 1abc ab2c 5bbe
00000210: 4787 46be 94cb abbd 4bee 50bd f5c1 dd3b
00000220: 57fe a03d 53dc 9bbb c670 4fbe 699e 47be
00000230: 679b 70bd 3d5d b43d 7ec9 60be 25d2 57be
00000240: 4b32 2a3e 8691 11bd 19dc 67bd 216e 22bd
00000250: 9620 4f3e c264 543d 4eed 313e 143c 0e3d
00000260: 120e 0ebe cd72 00be 05d0 d1bd 88cb 233e
00000270: 4d38 5ebe 683d e03c 9006 69bc 14d3 ab3d
00000280: 4a8d 1cbe 6f16 cd3b 4bec 24be e692 ca3d
00000290: c5ad 47be d660 9dbd 9510 3f3e d105 2a3e
000002a0: 6bba 5dbd 51ee 0d3e 9e7e 5fbe d0e1 1dbe
000002b0: dd2a e43c 79a5 573e 1f9c 1abe fdbf e33d
000002c0: bdd4 183e a3b5 5b3e 5c68 c93d 90f7 fcbd
000002d0: 635f 003e 129c dc3d 5afd 33be 36ea 55be
000002e0: 7c75 393e 49bd 2dbe 6a33 3a3e 4fb3 fd3d
000002f0: b7f7 40be d796 9f3c 282f c83d 9bda 103e
00000300: 94fa 9fbc 63e4 5b3e 0d14 a53c 0fd6 c7bd
00000310: a4f5 ac3c 84fe 8bbd b8b9 693d 68a6 3f3e
00000320: 1828 c1bd f547 0cbe 839c 10bc 48b9 37bd
00000330: 4fc7 4f3e 1d68 463e 74d1 a8bd a4e9 b53d
00000340: 8e0c 353e 933d 553e 951f 3e3e d8e7 ce3c
00000350: 6b4c 3c3e 21e7 dbbd 1484 dfbc dbfd 033d
00000360: 2e22 8b3d 2af1 f83d 4e01 1c3e cae4 003e
00000370: efe2 d2bc a5f4 dabd 0cf7 7dbd ae17 50bd
00000380: 47a3 2b3e a17d 5ebc 85f8 23be a7a0 223e
00000390: 93ff a0bd 2086 073e 4c70 64be efbd 78ba
000003a0: c729 febd 9ab7 993d 1a25 50bd c806 cabd
000003b0: b73d b2bc f745 17be c200 333e 5507 abbd
000003c0: 56ac 2cba b82f 5cbe fb39 b7bd b4e0 213b
000003d0: bda0 f53d 1f2c 2d3e 600a 223e d802 30be
000003e0: 4f98 43be 4ce5 d7bd 6fad f73d 1524 23be
000003f0: ef75 4e3e 8296 90bd bbc2 3abe 7cdd 36be
0.06799824 -0.1774194 0.0020808524 -0.03484064 0.21138814 -0.12937707 0.20938908 -0.04782854
0.1707748 -0.20546328 -0.082620986 0.031104833 -0.047536064 0.18957256 -0.12627622 -0.16532432
0.063963905 0.22023651 -0.2045262 -0.21372281 -0.19919254 0.029646464 0.06050745 -0.06847445
0.2139182 0.14032021 -0.20433392 0.08742929 0.15251532 0.060106054 0.15418409 -0.21814802
0.22143748 0.15658897 0.19606012 0.06518649 -0.032346044 0.03556699 0.09730226 0.21429904
-0.1906104 0.17078146 -0.12893395 -0.1617401 -0.14844139 -0.071006835 0.16015738 -0.12766339
0.15268311 -0.12665617 -0.0980261 -0.080882065 -0.15760972 -0.01609716 0.027115015 0.033517968
-0.17059433 -0.09227999 0.11096354 0.0035309119 -0.12560774 0.053577166 -0.0145729445 -0.07597703
0.04925771 -0.06902243 -0.026217273 -0.22159274 -0.1537018 0.10476152 0.01535036 0.0044483994
0.21217127 -0.13160287 0.14898343 -0.17506383 -0.08528233 0.2226887 0.08143136 -0.005842529
0.06703794 -0.18423507 -0.19341958 -0.03191377 -0.10944826 -0.1245692 0.10246598 0.008565423
0.17131326 -0.04701923 0.20736286 0.21013872 -0.0055577233 -0.14336373 0.20876569 0.1430407
0.22044133 -0.16630304 -0.13570313 0.005050913 0.19328606 0.030311693 -0.003283331 -0.024872063
-0.061598893 -0.035416637 -0.09061076 0.043760892 0.20773093 -0.083092324 -0.0736108 -0.054339755
0.2228809 -0.028638681 -0.10450278 0.123949885 0.12068501 -0.09431845 0.15496409 -0.14404653
-0.19065939 -0.112676695 0.024928402 0.032019 0.009808941 0.025026 -0.21301979 -0.09667007
-0.07203231 -0.044203386 -0.009443115 -0.21403758 -0.19387542 -0.08388439 -0.051008504 0.0067675062
0.078610115 -0.0047564893 -0.20257863 -0.19494022 -0.058741953 0.08806846 -0.21951863 -0.21076258
0.16620748 -0.035539173 -0.056606386 -0.03965581 0.20227274 0.051853903 0.17375681 0.034725264
-0.13872555 -0.12543793 -0.10244755 0.1599561 -0.21701165 0.02737303 -0.014222756 0.08389869
-0.15288273 0.006258778 -0.16105764 0.098913 -0.19499882 -0.076844856 0.1865867 0.16603781
-0.05413286 0.13860442 -0.21825644 -0.15418172 0.02785247 0.21059217 -0.15098618 0.11120603
0.14924903 0.21456008 0.09834358 -0.12351906 0.12536387 0.107719555 -0.17577115 -0.20890126
0.18111223 -0.16966738 0.18183675 0.12387716 -0.18844496 0.019481106 0.09774619 0.14145891
-0.019528665 0.21473841 0.020151163 -0.09757625 0.021113224 -0.068356544 0.05706188 0.18715823
-0.094314754 -0.13699324 -0.008826378 -0.044854432 0.20290874 0.19375654 -0.08243075 0.08882454
0.1768057 0.2082427 0.18566735 0.025257036 0.18388526 -0.10737444 -0.02728466 0.032224517
0.06793629 0.121553734 0.15234873 0.12587276 -0.025742976 -0.106911935 -0.06200318 -0.050803833
0.16761504 -0.013579757 -0.16012771 0.15881597 -0.07861247 0.13234758 -0.22308463 -0.00094887515
-0.12410312 0.07505722 -0.050816633 -0.09864575 -0.021757944 -0.14772783 0.17480758 -0.08351008
-0.00065869594 -0.21502578 -0.08946606 0.0024700584 0.11993549 0.16911362 0.1582427 -0.17188585
-0.1910107 -0.10541782 0.12093627 -0.15931733 0.20162176 -0.07059957 -0.18238346 -0.17857927

onnx::MatMul_33 f4 [16, 12]
00000000: 9a91 433d 25b2 803e e55f 4a3e b753 663e
00000010: 6bde b4bd 26cf ba3c 424f 38bc 4446 e83d
00000020: e93a 06be b80c 81bd 1c96 11be 36cd 143d
00000030: e4e0 5d3e 7f9a e23d 73d0 a5bd 3bbe eb3d
00000040: 31f4 31be 078e 34be 0526 4cbe 91ac 873c
00000050: 0f2b 99bd 4929 473e 3321 05be 750b 3e3e
00000060: 4806 8cbd efcd 2f3e 2956 463e 46af 683e
00000070: 43c0 3b3b 8112 7bbe b2fc 46be d746 7fbc
00000080: acb3 c73d 9a91 b43d 9c9e d93d 51b1 31be
00000090: b347 86bc 61dc 6fbe 5407 87bd 1d05 253d
000000a0: 7072 23be 9f61 073b c343 2f3e 677f 41bc
000000b0: 215b 043b b6b9 7a3c c0c3 9e3d a8bd 263e
000000c0: 38b9 5abe fd14 47bd 4bb4 1c3e 08df 4bbd
000000d0: 6529 57be 6107 6b3e c995 523e bb00 133d
000000e0: 7051 093e e84f 013e 8df9 2c3e a512 3fbe
000000f0: 6f66 00be 3b85 c53d d98a 5ebe 21ef 3d3c
00000100: be8a bd3d 5185 d2bd 285e f6bd 7cbb 823d
00000110: 3c87 16be f526 073e 5a00 703e 7d6b 51be
00000120: 893f 5abe a0b9 703e b0d7 c5bd 5ade 063e
00000130: b40b ee3d 9a5f 1abe 49c9 f0bd 3e7a 8f3d
00000140: 1375 6fbe 103f b3bd 0b9c 62bc ddaa 72be
00000150: cf17 ad3c d1e6 2fbe 994c 603e e549 5b3e
00000160: daad e6bd eacf 5dbe 4fda 663e 74eb 153e
00000170: 418d 15be 7f6c 543e 6cea b2bb 4b29 38be
00000180: 2372 01be d051 46bc 2d48 28be 5f8b 1e3e
00000190: 8183 d73d 0367 23bd a30d 11be 76ce be3d
000001a0: cfca 14be a6c8 833d 5a03 efbd 7ff8 3ebe
000001b0: 485d c5bd 08a0 77be 18a2 713d 7600 3ebe
000001c0: a757 f83d cee5 b53d 71cf b63d f138 5d3e
000001d0: 6cc0 31be a0f3 c2bd 88b2 413e c91c 773e
000001e0: 4986 7b3e 45c2 b5bd 6855 e43d e5cd 11bd
000001f0: ec14 713e 3df6 593e 906f c93d cfce 60be
00000200: 5593 95bd 119b 62be 6ec0 8dbd 679b 36be
00000210: 5735 e0bd 628d 0c3e 8a57 79be e698 01be
00000220: 7a88 303e 4977 02bb b8ec 52be 7454 633e
00000230: 1401 0d3e a245 78be 8d9a f2bd 7c0f 01be
00000240: 37fa e23d 7e0a c03d a275 a0bd 893c 5c3e
00000250: 5851 423e d090 b03d e447 60be b9fd 463e
00000260: 40a1 153e e210 0dbd 1919 fc3d ad0f 56be
00000270: 76d6 403d 0aab 37be 1dc1 663d 175d b23d
00000280: b45f 3bbe d4ba 04bd 2b41 213e 857f 78be
00000290: e6d5 6cbe 90d7 17be 1dea 48be 42f1 463e
000002a0: e600 01be 7108 723e 9a7d 7abe ac23 95bd
000002b0: 707c 69be 42f7 623e 6148 933d 86c9 3fbd
000002c0: f933 04bc aae8 1a3e e530 debd bd2e 1e3e
000002d0: 0071 58bc eb36 4a3c 4c21 4abe bf7a 163e
000002e0: e448 603d bc9f 5abe 6a00 fbbc 0e6e 2dbd
000002f0: 7846 f4bd 2ee8 3fbe a714 b2bb 3efe 543e
0.04774628 0.25135913 0.19763143 0.22492872 -0.08831485 0.022803854 -0.011249365 0.11341527
-0.1310841 -0.06301254 -0.14217418 0.036328517 0.2166782 0.11064624 -0.08096399 0.11510893
-0.17378308 -0.17632304 -0.19936378 0.016561778 -0.07478916 0.19449343 -0.13000946 0.18559058
-0.068371356 0.17168401 0.19368805 0.22723112 0.0028648532 -0.24518777 -0.19432333 -0.015580854
0.097510666 0.08816834 0.106259555 -0.17352797 -0.01639161 -0.23423912 -0.065931946 0.04028808
-0.15961623 0.0020657552 0.17115693 -0.01181016 0.0020195919 0.015303066 0.0775218 0.16283286
-0.21359718 -0.048604 0.15303151 -0.049773246 -0.21011885 0.22952034 0.20564951 0.03588937
0.13409972 0.12628138 0.16892071 -0.18659456 -0.12539075 0.09644552 -0.21732654 0.011592657
0.092549786 -0.10279334 -0.12029678 0.06383416 -0.14700025 0.13198455 0.23437634 -0.2045116
-0.21313299 0.2350831 -0.0966028 0.13170758 0.11623326 -0.15075532 -0.11757142 0.07005738
-0.23384504 -0.087522626 -0.013831149 -0.23697992 0.021129517 -0.17177893 0.2190422 0.21414907
-0.11263628 -0.21661344 0.22544216 0.146406 -0.14604665 0.20744513 -0.005460074 -0.17984502
-0.12641196 -0.012104467 -0.16433783 0.15482853 0.10523129 -0.03989316 -0.14165358 0.09316723
-0.1453049 0.06434755 -0.11670561 -0.18649481 -0.096369326 -0.24182141 0.058992475 -0.18554863
0.12126093 0.088817224 0.08926285 0.21603753 -0.1735856 -0.09519124 0.1891576 0.24132074
0.24562944 -0.088749446 0.111491024 -0.035596747 0.23543137 0.21285339 0.09835732 -0.21953891
-0.07303492 -0.22129466 -0.06921469 -0.17832719 -0.10947674 0.13725808 -0.243498 -0.12655982
0.17239562 -0.0019907525 -0.20598114 0.22200185 0.13769943 -0.24245313 -0.118458845 -0.12603563
0.11082881 0.09377001 -0.07834937 0.21507467 0.18976343 0.08621371 -0.21902424 0.19432725
0.14612293 -0.03443993 0.123094745 -0.20904417 0.047079526 -0.1793634 0.05633651 0.08709162
-0.18298227 -0.032404736 0.15747516 -0.24267395 -0.23128471 -0.14828324 -0.19620557 0.1942797
-0.12597999 0.23636033 -0.24461976 -0.072821945 -0.22801375 0.22164634 0.071915396 -0.046823047
-0.008069032 0.15127817 -0.1084917 0.15447517 -0.013210535 0.012342195 -0.19739264 0.14695261
0.054757014 -0.21349996 -0.030639846 -0.042341284 -0.11927503 -0.18740913 -0.005434591 0.2080011

onnx::MatMul_34 f4 [12, 8]
00000000: b554 bc3d 8952 d0bd 5294 acbd e6b4 61bc
00000010: 56b5 81bc fa75 43be c995 893e 57bb 18bd
00000020: 55d6 293e 77a1 8d3e 5b7c 50be 7913 893b
00000030: c569 7ebe 6da0 6d3e 67ae a23d 28ed 7d3e
00000040: 7846 b8bd 4c35 bbba b681 39be 92cd 073e
00000050: 7c95 1f3e 976e cb3d cc20 b43d 6452 6a3e
00000060: dc20 763e 3fad e1bd e7ec 273e a6ce cf3d
00000070: 1555 4fbe a2c9 b43c 85e4 ef3d cbc8 a33d
00000080: 8bb9 313b 7dfe 1dbe fb9d bebc a5bc 10bc
00000090: 87dc 70be 8c00 87bd e453 46be 4186 03be
000000a0: 56c2 d0bc 5a95 f9bd 9b6a 053e 652e c83b
000000b0: 1674 433e 9390 63be 8679 5b3e 00fc 1f3e
000000c0: 4c24 ec3d efc0 e4bd cf03 26be de65 e6bd
000000d0: 60e6 3a3d 2ce2 253c b3e8 c23d cf77 fd3c
000000e0: 1cfb d0bd 634a 223e cddd 6e3e ad2d 3d3e
000000f0: ecf4 8d3e ac3a 2cbd 547d 203e 1ca8 2bbe
00000100: d382 19be 6859 05be e0ee 583e f28d 493d
00000110: 1c1d 223d 4d64 823e bdef f63d 623f 353e
00000120: 4cf9 f63d 3d1f 923e dcff 5c3e 6938 91b7
00000130: 5a33 06bd 710e 4a3e 4356 013e 30b8 4cbe
00000140: 1321 993e 264b 963e 3d71 243e 7a99 67be
00000150: 9fb2 56be 7992 6abe db7e e63d 09f0 d3bc
00000160: fe3f 8b3e 2004 d63b 9a40 753d 01ff 703e
00000170: 9ace f93d 6397 1f3e 2e9a 68be 95e4 8c3e
0.09195844 -0.10171992 -0.08426727 -0.01377604 -0.015833538 -0.19087973 0.2687209 -0.037288036
0.16585667 0.2766225 -0.20359938 0.0041832295 -0.24845035 0.23205729 0.07943421 0.24797499
-0.08997816 -0.0014282851 -0.18115887 0.13262013 0.15584368 0.09933203 0.08795318 0.22882992
0.24035972 -0.11019372 0.16398965 0.10146837 -0.202473 0.022068802 0.117135085 0.079972826
0.002711865 -0.15429111 -0.02326869 -0.008834039 -0.23521625 -0.06591901 -0.19367939 -0.12844183
-0.025483292 -0.1218669 0.13028948 0.0061090463 0.19087252 -0.2222312 0.21433076 0.15623474
0.115303606 -0.11169612 -0.1621239 -0.112498984 0.04562986 0.010124724 0.0951704 0.030940918
-0.10204145 0.15848689 0.23326798 0.18474455 0.27725923 -0.04204814 0.15672809 -0.16763347
-0.14991312 -0.13022387 0.21184874 0.049207635 0.039578542 0.25467148 0.12057445 0.1769996
0.12059268 0.28539458 0.21581978 -1.7311615e-05 -0.032763816 0.19732071 0.12630562 -0.19992137
0.29908046 0.2935421 0.16058822 -0.2261714 -0.20966576 -0.22907437 0.112546645 -0.025871294
0.2719726 0.0065312535 0.059876062 0.23534776 0.12197609 0.15585093 -0.22715065 0.27518144

onnx::MatMul_35 f4 [8, 4]
00000000: 8f25 c53e 1574 b93e 9baf c9be d1db 793d
00000010: 0733 d33d 4e91 923d ec04 edbe 1ff1 26be
00000020: b0cd 353e d41c 703b ecfe 8d3b 2b6a 3c3d
00000030: 7ed8 a93e 3afd a53e 89b9 d3be 517d 1d3e
00000040: 7368 303e dcaa 30be 117a c8be e4a0 b3be
00000050: 583b ea3d 151c 24be c075 f0be 9122 bcbe
00000060: 6b2a debd 8beb 5b3d 4be9 88be 8fa8 e5be
00000070: f8d9 39be 145e 81bb a5d2 0ebd b6bd bcbe
0.38505217 0.36221376 -0.3939179 0.06100065 0.10312467 0.07156621 -0.46292818 -0.16302918
0.17754245 0.0036638277 0.0043333676 0.045999687 0.33172983 0.3241976 -0.4135249 0.15379836
0.17227344 -0.17252678 -0.3915563 -0.35083687 0.114371 -0.16026337 -0.46964836 -0.36745122
-0.10847934 0.05369143 -0.26740488 -0.44855163 -0.18149555 -0.0039479826 -0.034868855 -0.36863488
